<?xml version="1.0"?>
<net name="Model0" version="11">
	<layers>
		<layer id="0" name="past_values" type="Parameter" version="opset1">
			<data shape="?,?,7" element_type="f32" />
			<output>
				<port id="0" precision="FP32" names="past_values">
					<dim>-1</dim>
					<dim>-1</dim>
					<dim>7</dim>
				</port>
			</output>
		</layer>
		<layer id="1" name="__module.model.encoder.positional_encoder/aten::add/Add_compressed" type="Const" version="opset1">
			<data element_type="f16" shape="1, 1, 1, 128" offset="0" size="256" />
			<output>
				<port id="0" precision="FP16" names="176,cls_token.1">
					<dim>1</dim>
					<dim>1</dim>
					<dim>1</dim>
					<dim>128</dim>
				</port>
			</output>
		</layer>
		<layer id="2" name="__module.model.encoder.positional_encoder/aten::add/Add" type="Convert" version="opset1">
			<data destination_type="f32" />
			<rt_info>
				<attribute name="decompression" version="0" />
			</rt_info>
			<input>
				<port id="0" precision="FP16">
					<dim>1</dim>
					<dim>1</dim>
					<dim>1</dim>
					<dim>128</dim>
				</port>
			</input>
			<output>
				<port id="1" precision="FP32">
					<dim>1</dim>
					<dim>1</dim>
					<dim>1</dim>
					<dim>128</dim>
				</port>
			</output>
		</layer>
		<layer id="3" name="ShapeOf_9902" type="ShapeOf" version="opset3">
			<data output_type="i64" />
			<input>
				<port id="0" precision="FP32">
					<dim>-1</dim>
					<dim>-1</dim>
					<dim>7</dim>
				</port>
			</input>
			<output>
				<port id="1" precision="I64">
					<dim>3</dim>
				</port>
			</output>
		</layer>
		<layer id="4" name="Constant_9903" type="Const" version="opset1">
			<data element_type="i64" shape="1" offset="256" size="8" />
			<rt_info>
				<attribute name="precise" version="0" />
			</rt_info>
			<output>
				<port id="0" precision="I64">
					<dim>1</dim>
				</port>
			</output>
		</layer>
		<layer id="5" name="Constant_9904" type="Const" version="opset1">
			<data element_type="i64" shape="" offset="256" size="8" />
			<rt_info>
				<attribute name="precise" version="0" />
			</rt_info>
			<output>
				<port id="0" precision="I64" />
			</output>
		</layer>
		<layer id="6" name="Gather_9905" type="Gather" version="opset8">
			<data batch_dims="0" />
			<input>
				<port id="0" precision="I64">
					<dim>3</dim>
				</port>
				<port id="1" precision="I64">
					<dim>1</dim>
				</port>
				<port id="2" precision="I64" />
			</input>
			<output>
				<port id="3" precision="I64" names="177,186,273,360">
					<dim>1</dim>
				</port>
			</output>
		</layer>
		<layer id="7" name="Constant_7832" type="Const" version="opset1">
			<data element_type="i64" shape="1" offset="264" size="8" />
			<rt_info>
				<attribute name="precise" version="0" />
			</rt_info>
			<output>
				<port id="0" precision="I64">
					<dim>1</dim>
				</port>
			</output>
		</layer>
		<layer id="8" name="Constant_7834" type="Const" version="opset1">
			<data element_type="i64" shape="1" offset="272" size="8" />
			<rt_info>
				<attribute name="precise" version="0" />
			</rt_info>
			<output>
				<port id="0" precision="I64">
					<dim>1</dim>
				</port>
			</output>
		</layer>
		<layer id="9" name="Constant_7836" type="Const" version="opset1">
			<data element_type="i64" shape="1" offset="272" size="8" />
			<rt_info>
				<attribute name="precise" version="0" />
			</rt_info>
			<output>
				<port id="0" precision="I64">
					<dim>1</dim>
				</port>
			</output>
		</layer>
		<layer id="10" name="__module.model.encoder.positional_encoder/prim::ListConstruct" type="Concat" version="opset1">
			<data axis="0" />
			<input>
				<port id="0" precision="I64">
					<dim>1</dim>
				</port>
				<port id="1" precision="I64">
					<dim>1</dim>
				</port>
				<port id="2" precision="I64">
					<dim>1</dim>
				</port>
				<port id="3" precision="I64">
					<dim>1</dim>
				</port>
			</input>
			<output>
				<port id="4" precision="I64">
					<dim>4</dim>
				</port>
			</output>
		</layer>
		<layer id="11" name="__module.model.encoder.positional_encoder/aten::expand/Broadcast" type="Broadcast" version="opset3">
			<data mode="bidirectional" />
			<input>
				<port id="0" precision="FP32">
					<dim>1</dim>
					<dim>1</dim>
					<dim>1</dim>
					<dim>128</dim>
				</port>
				<port id="1" precision="I64">
					<dim>4</dim>
				</port>
			</input>
			<output>
				<port id="2" precision="FP32" names="179,cls_tokens">
					<dim>-1</dim>
					<dim>7</dim>
					<dim>1</dim>
					<dim>128</dim>
				</port>
			</output>
		</layer>
		<layer id="12" name="__module.model/aten::ones_like/Constant_compressed" type="Const" version="opset1">
			<data element_type="f16" shape="" offset="280" size="2" />
			<output>
				<port id="0" precision="FP16" />
			</output>
		</layer>
		<layer id="13" name="__module.model/aten::ones_like/Constant" type="Convert" version="opset1">
			<data destination_type="f32" />
			<rt_info>
				<attribute name="decompression" version="0" />
			</rt_info>
			<input>
				<port id="0" precision="FP16" />
			</input>
			<output>
				<port id="1" precision="FP32" />
			</output>
		</layer>
		<layer id="14" name="__module.model/aten::ones_like/ShapeOf" type="ShapeOf" version="opset3">
			<data output_type="i32" />
			<input>
				<port id="0" precision="FP32">
					<dim>-1</dim>
					<dim>-1</dim>
					<dim>7</dim>
				</port>
			</input>
			<output>
				<port id="1" precision="I32">
					<dim>3</dim>
				</port>
			</output>
		</layer>
		<layer id="15" name="__module.model/aten::ones_like/Broadcast" type="Broadcast" version="opset3">
			<data mode="numpy" />
			<input>
				<port id="0" precision="FP32" />
				<port id="1" precision="I32">
					<dim>3</dim>
				</port>
			</input>
			<output>
				<port id="2" precision="FP32" names="79,observed_indicator">
					<dim>-1</dim>
					<dim>-1</dim>
					<dim>7</dim>
				</port>
			</output>
		</layer>
		<layer id="16" name="__module.model.scaler.scaler/aten::mul/Multiply" type="Multiply" version="opset1">
			<data auto_broadcast="numpy" />
			<input>
				<port id="0" precision="FP32">
					<dim>-1</dim>
					<dim>-1</dim>
					<dim>7</dim>
				</port>
				<port id="1" precision="FP32">
					<dim>-1</dim>
					<dim>-1</dim>
					<dim>7</dim>
				</port>
			</input>
			<output>
				<port id="2" precision="FP32" names="84">
					<dim>-1</dim>
					<dim>-1</dim>
					<dim>7</dim>
				</port>
			</output>
		</layer>
		<layer id="17" name="Constant_98" type="Const" version="opset1">
			<data element_type="i64" shape="1" offset="272" size="8" />
			<output>
				<port id="0" precision="I64" names="85">
					<dim>1</dim>
				</port>
			</output>
		</layer>
		<layer id="18" name="__module.model.scaler.scaler/aten::sum/ReduceSum" type="ReduceSum" version="opset1">
			<data keep_dims="true" />
			<input>
				<port id="0" precision="FP32">
					<dim>-1</dim>
					<dim>-1</dim>
					<dim>7</dim>
				</port>
				<port id="1" precision="I64">
					<dim>1</dim>
				</port>
			</input>
			<output>
				<port id="2" precision="FP32" names="86">
					<dim>-1</dim>
					<dim>1</dim>
					<dim>7</dim>
				</port>
			</output>
		</layer>
		<layer id="19" name="Constant_83" type="Const" version="opset1">
			<data element_type="i64" shape="1" offset="272" size="8" />
			<output>
				<port id="0" precision="I64" names="81">
					<dim>1</dim>
				</port>
			</output>
		</layer>
		<layer id="20" name="__module.model.scaler.scaler/aten::sum/ReduceSum_1" type="ReduceSum" version="opset1">
			<data keep_dims="true" />
			<input>
				<port id="0" precision="FP32">
					<dim>-1</dim>
					<dim>-1</dim>
					<dim>7</dim>
				</port>
				<port id="1" precision="I64">
					<dim>1</dim>
				</port>
			</input>
			<output>
				<port id="2" precision="FP32" names="82,denominator.1">
					<dim>-1</dim>
					<dim>1</dim>
					<dim>7</dim>
				</port>
			</output>
		</layer>
		<layer id="21" name="Constant_9529_compressed" type="Const" version="opset1">
			<data element_type="f16" shape="1, 1, 1" offset="280" size="2" />
			<output>
				<port id="0" precision="FP16">
					<dim>1</dim>
					<dim>1</dim>
					<dim>1</dim>
				</port>
			</output>
		</layer>
		<layer id="22" name="Constant_9529" type="Convert" version="opset1">
			<data destination_type="f32" />
			<rt_info>
				<attribute name="decompression" version="0" />
			</rt_info>
			<input>
				<port id="0" precision="FP16">
					<dim>1</dim>
					<dim>1</dim>
					<dim>1</dim>
				</port>
			</input>
			<output>
				<port id="1" precision="FP32">
					<dim>1</dim>
					<dim>1</dim>
					<dim>1</dim>
				</port>
			</output>
		</layer>
		<layer id="23" name="__module.model.scaler.scaler/aten::clamp_min/Maximum" type="Maximum" version="opset1">
			<data auto_broadcast="numpy" />
			<input>
				<port id="0" precision="FP32">
					<dim>-1</dim>
					<dim>1</dim>
					<dim>7</dim>
				</port>
				<port id="1" precision="FP32">
					<dim>1</dim>
					<dim>1</dim>
					<dim>1</dim>
				</port>
			</input>
			<output>
				<port id="2" precision="FP32" names="83,denominator">
					<dim>-1</dim>
					<dim>1</dim>
					<dim>7</dim>
				</port>
			</output>
		</layer>
		<layer id="24" name="__module.model.scaler.scaler/aten::div/Divide" type="Divide" version="opset1">
			<data auto_broadcast="numpy" m_pythondiv="true" />
			<input>
				<port id="0" precision="FP32">
					<dim>-1</dim>
					<dim>1</dim>
					<dim>7</dim>
				</port>
				<port id="1" precision="FP32">
					<dim>-1</dim>
					<dim>1</dim>
					<dim>7</dim>
				</port>
			</input>
			<output>
				<port id="2" precision="FP32" names="101,105,7,87,loc">
					<dim>-1</dim>
					<dim>1</dim>
					<dim>7</dim>
				</port>
			</output>
		</layer>
		<layer id="25" name="__module.model.scaler.scaler/aten::sub/Subtract" type="Subtract" version="opset1">
			<data auto_broadcast="numpy" />
			<input>
				<port id="0" precision="FP32">
					<dim>-1</dim>
					<dim>-1</dim>
					<dim>7</dim>
				</port>
				<port id="1" precision="FP32">
					<dim>-1</dim>
					<dim>1</dim>
					<dim>7</dim>
				</port>
			</input>
			<output>
				<port id="2" precision="FP32" names="88,96">
					<dim>-1</dim>
					<dim>-1</dim>
					<dim>7</dim>
				</port>
			</output>
		</layer>
		<layer id="26" name="__module.model.scaler.scaler/aten::mul/Multiply_1" type="Multiply" version="opset1">
			<data auto_broadcast="numpy" />
			<input>
				<port id="0" precision="FP32">
					<dim>-1</dim>
					<dim>-1</dim>
					<dim>7</dim>
				</port>
				<port id="1" precision="FP32">
					<dim>-1</dim>
					<dim>-1</dim>
					<dim>7</dim>
				</port>
			</input>
			<output>
				<port id="2" precision="FP32" names="89">
					<dim>-1</dim>
					<dim>-1</dim>
					<dim>7</dim>
				</port>
			</output>
		</layer>
		<layer id="27" name="Constant_9530_compressed" type="Const" version="opset1">
			<data element_type="f16" shape="1, 1, 1" offset="282" size="2" />
			<output>
				<port id="0" precision="FP16">
					<dim>1</dim>
					<dim>1</dim>
					<dim>1</dim>
				</port>
			</output>
		</layer>
		<layer id="28" name="Constant_9530" type="Convert" version="opset1">
			<data destination_type="f32" />
			<rt_info>
				<attribute name="decompression" version="0" />
			</rt_info>
			<input>
				<port id="0" precision="FP16">
					<dim>1</dim>
					<dim>1</dim>
					<dim>1</dim>
				</port>
			</input>
			<output>
				<port id="1" precision="FP32">
					<dim>1</dim>
					<dim>1</dim>
					<dim>1</dim>
				</port>
			</output>
		</layer>
		<layer id="29" name="__module.model.scaler.scaler/aten::pow/Power" type="Power" version="opset1">
			<data auto_broadcast="numpy" />
			<input>
				<port id="0" precision="FP32">
					<dim>-1</dim>
					<dim>-1</dim>
					<dim>7</dim>
				</port>
				<port id="1" precision="FP32">
					<dim>1</dim>
					<dim>1</dim>
					<dim>1</dim>
				</port>
			</input>
			<output>
				<port id="2" precision="FP32" names="90">
					<dim>-1</dim>
					<dim>-1</dim>
					<dim>7</dim>
				</port>
			</output>
		</layer>
		<layer id="30" name="Constant_124" type="Const" version="opset1">
			<data element_type="i64" shape="1" offset="272" size="8" />
			<output>
				<port id="0" precision="I64" names="91">
					<dim>1</dim>
				</port>
			</output>
		</layer>
		<layer id="31" name="__module.model.scaler.scaler/aten::sum/ReduceSum_2" type="ReduceSum" version="opset1">
			<data keep_dims="true" />
			<input>
				<port id="0" precision="FP32">
					<dim>-1</dim>
					<dim>-1</dim>
					<dim>7</dim>
				</port>
				<port id="1" precision="I64">
					<dim>1</dim>
				</port>
			</input>
			<output>
				<port id="2" precision="FP32" names="92">
					<dim>-1</dim>
					<dim>1</dim>
					<dim>7</dim>
				</port>
			</output>
		</layer>
		<layer id="32" name="__module.model.scaler.scaler/aten::div/Divide_1" type="Divide" version="opset1">
			<data auto_broadcast="numpy" m_pythondiv="true" />
			<input>
				<port id="0" precision="FP32">
					<dim>-1</dim>
					<dim>1</dim>
					<dim>7</dim>
				</port>
				<port id="1" precision="FP32">
					<dim>-1</dim>
					<dim>1</dim>
					<dim>7</dim>
				</port>
			</input>
			<output>
				<port id="2" precision="FP32" names="93,variance">
					<dim>-1</dim>
					<dim>1</dim>
					<dim>7</dim>
				</port>
			</output>
		</layer>
		<layer id="33" name="Constant_9531_compressed" type="Const" version="opset1">
			<data element_type="f16" shape="1, 1, 1" offset="284" size="2" />
			<output>
				<port id="0" precision="FP16">
					<dim>1</dim>
					<dim>1</dim>
					<dim>1</dim>
				</port>
			</output>
		</layer>
		<layer id="34" name="Constant_9531" type="Convert" version="opset1">
			<data destination_type="f32" />
			<rt_info>
				<attribute name="decompression" version="0" />
			</rt_info>
			<input>
				<port id="0" precision="FP16">
					<dim>1</dim>
					<dim>1</dim>
					<dim>1</dim>
				</port>
			</input>
			<output>
				<port id="1" precision="FP32">
					<dim>1</dim>
					<dim>1</dim>
					<dim>1</dim>
				</port>
			</output>
		</layer>
		<layer id="35" name="__module.model.scaler.scaler/aten::add/Add" type="Add" version="opset1">
			<data auto_broadcast="numpy" />
			<input>
				<port id="0" precision="FP32">
					<dim>-1</dim>
					<dim>1</dim>
					<dim>7</dim>
				</port>
				<port id="1" precision="FP32">
					<dim>1</dim>
					<dim>1</dim>
					<dim>1</dim>
				</port>
			</input>
			<output>
				<port id="2" precision="FP32" names="94">
					<dim>-1</dim>
					<dim>1</dim>
					<dim>7</dim>
				</port>
			</output>
		</layer>
		<layer id="36" name="__module.model.scaler.scaler/aten::sqrt/Sqrt" type="Sqrt" version="opset1">
			<input>
				<port id="0" precision="FP32">
					<dim>-1</dim>
					<dim>1</dim>
					<dim>7</dim>
				</port>
			</input>
			<output>
				<port id="1" precision="FP32" names="100,104,6,95,scale">
					<dim>-1</dim>
					<dim>1</dim>
					<dim>7</dim>
				</port>
			</output>
		</layer>
		<layer id="37" name="__module.model.scaler.scaler/aten::div/Divide_2" type="Divide" version="opset1">
			<data auto_broadcast="numpy" m_pythondiv="true" />
			<input>
				<port id="0" precision="FP32">
					<dim>-1</dim>
					<dim>-1</dim>
					<dim>7</dim>
				</port>
				<port id="1" precision="FP32">
					<dim>-1</dim>
					<dim>1</dim>
					<dim>7</dim>
				</port>
			</input>
			<output>
				<port id="2" precision="FP32" names="103,106,97,99,past_values_1">
					<dim>-1</dim>
					<dim>-1</dim>
					<dim>7</dim>
				</port>
			</output>
		</layer>
		<layer id="38" name="Constant_171" type="Const" version="opset1">
			<data element_type="i64" shape="1" offset="286" size="8" />
			<output>
				<port id="0" precision="I64">
					<dim>1</dim>
				</port>
			</output>
		</layer>
		<layer id="39" name="Constant_173" type="Const" version="opset1">
			<data element_type="i64" shape="1" offset="294" size="8" />
			<output>
				<port id="0" precision="I64">
					<dim>1</dim>
				</port>
			</output>
		</layer>
		<layer id="40" name="Constant_175" type="Const" version="opset1">
			<data element_type="i64" shape="1" offset="272" size="8" />
			<output>
				<port id="0" precision="I64">
					<dim>1</dim>
				</port>
			</output>
		</layer>
		<layer id="41" name="Constant_169" type="Const" version="opset1">
			<data element_type="i64" shape="1" offset="272" size="8" />
			<output>
				<port id="0" precision="I64">
					<dim>1</dim>
				</port>
			</output>
		</layer>
		<layer id="42" name="__module.model.patchifier/aten::slice/Slice_1" type="Slice" version="opset8">
			<input>
				<port id="0" precision="FP32">
					<dim>-1</dim>
					<dim>-1</dim>
					<dim>7</dim>
				</port>
				<port id="1" precision="I64">
					<dim>1</dim>
				</port>
				<port id="2" precision="I64">
					<dim>1</dim>
				</port>
				<port id="3" precision="I64">
					<dim>1</dim>
				</port>
				<port id="4" precision="I64">
					<dim>1</dim>
				</port>
			</input>
			<output>
				<port id="5" precision="FP32" names="107,108,input_tensor.1">
					<dim>-1</dim>
					<dim>-1</dim>
					<dim>7</dim>
				</port>
			</output>
		</layer>
		<layer id="43" name="__module.model.patchifier/aten::transpose/Constant" type="Const" version="opset1">
			<data element_type="i32" shape="3" offset="302" size="12" />
			<output>
				<port id="0" precision="I32">
					<dim>3</dim>
				</port>
			</output>
		</layer>
		<layer id="44" name="__module.model.patchifier/aten::transpose/Transpose" type="Transpose" version="opset1">
			<input>
				<port id="0" precision="FP32">
					<dim>-1</dim>
					<dim>-1</dim>
					<dim>7</dim>
				</port>
				<port id="1" precision="I32">
					<dim>3</dim>
				</port>
			</input>
			<output>
				<port id="2" precision="FP32" names="109,input_tensor">
					<dim>-1</dim>
					<dim>7</dim>
					<dim>-1</dim>
				</port>
			</output>
		</layer>
		<layer id="45" name="Constant_243" type="Const" version="opset1">
			<data element_type="i64" shape="1" offset="256" size="8" />
			<output>
				<port id="0" precision="I64">
					<dim>1</dim>
				</port>
			</output>
		</layer>
		<layer id="46" name="Constant_245" type="Const" version="opset1">
			<data element_type="i64" shape="1" offset="314" size="8" />
			<output>
				<port id="0" precision="I64">
					<dim>1</dim>
				</port>
			</output>
		</layer>
		<layer id="47" name="Constant_247" type="Const" version="opset1">
			<data element_type="i64" shape="1" offset="272" size="8" />
			<output>
				<port id="0" precision="I64">
					<dim>1</dim>
				</port>
			</output>
		</layer>
		<layer id="48" name="Constant_241" type="Const" version="opset1">
			<data element_type="i64" shape="1" offset="322" size="8" />
			<output>
				<port id="0" precision="I64">
					<dim>1</dim>
				</port>
			</output>
		</layer>
		<layer id="49" name="__module.model.patchifier/aten::slice/Slice_3" type="Slice" version="opset8">
			<input>
				<port id="0" precision="FP32">
					<dim>-1</dim>
					<dim>7</dim>
					<dim>-1</dim>
				</port>
				<port id="1" precision="I64">
					<dim>1</dim>
				</port>
				<port id="2" precision="I64">
					<dim>1</dim>
				</port>
				<port id="3" precision="I64">
					<dim>1</dim>
				</port>
				<port id="4" precision="I64">
					<dim>1</dim>
				</port>
			</input>
			<output>
				<port id="5" precision="FP32" names="110">
					<dim>-1</dim>
					<dim>7</dim>
					<dim>-1</dim>
				</port>
			</output>
		</layer>
		<layer id="50" name="Constant_3457" type="Const" version="opset1">
			<data element_type="i32" shape="" offset="330" size="4" />
			<output>
				<port id="0" precision="I32" />
			</output>
		</layer>
		<layer id="51" name="Unsqueeze_3458" type="Unsqueeze" version="opset1">
			<input>
				<port id="0" precision="FP32">
					<dim>-1</dim>
					<dim>7</dim>
					<dim>-1</dim>
				</port>
				<port id="1" precision="I32" />
			</input>
			<output>
				<port id="2" precision="FP32">
					<dim>-1</dim>
					<dim>7</dim>
					<dim>1</dim>
					<dim>-1</dim>
				</port>
			</output>
		</layer>
		<layer id="52" name="Constant_253" type="Const" version="opset1">
			<data element_type="i64" shape="1" offset="314" size="8" />
			<output>
				<port id="0" precision="I64">
					<dim>1</dim>
				</port>
			</output>
		</layer>
		<layer id="53" name="Constant_255" type="Const" version="opset1">
			<data element_type="i64" shape="1" offset="334" size="8" />
			<output>
				<port id="0" precision="I64">
					<dim>1</dim>
				</port>
			</output>
		</layer>
		<layer id="54" name="Constant_257" type="Const" version="opset1">
			<data element_type="i64" shape="1" offset="272" size="8" />
			<output>
				<port id="0" precision="I64">
					<dim>1</dim>
				</port>
			</output>
		</layer>
		<layer id="55" name="Constant_251" type="Const" version="opset1">
			<data element_type="i64" shape="1" offset="322" size="8" />
			<output>
				<port id="0" precision="I64">
					<dim>1</dim>
				</port>
			</output>
		</layer>
		<layer id="56" name="__module.model.patchifier/aten::slice/Slice_4" type="Slice" version="opset8">
			<input>
				<port id="0" precision="FP32">
					<dim>-1</dim>
					<dim>7</dim>
					<dim>-1</dim>
				</port>
				<port id="1" precision="I64">
					<dim>1</dim>
				</port>
				<port id="2" precision="I64">
					<dim>1</dim>
				</port>
				<port id="3" precision="I64">
					<dim>1</dim>
				</port>
				<port id="4" precision="I64">
					<dim>1</dim>
				</port>
			</input>
			<output>
				<port id="5" precision="FP32" names="111">
					<dim>-1</dim>
					<dim>7</dim>
					<dim>-1</dim>
				</port>
			</output>
		</layer>
		<layer id="57" name="Unsqueeze_3459" type="Unsqueeze" version="opset1">
			<input>
				<port id="0" precision="FP32">
					<dim>-1</dim>
					<dim>7</dim>
					<dim>-1</dim>
				</port>
				<port id="1" precision="I32" />
			</input>
			<output>
				<port id="2" precision="FP32">
					<dim>-1</dim>
					<dim>7</dim>
					<dim>1</dim>
					<dim>-1</dim>
				</port>
			</output>
		</layer>
		<layer id="58" name="Constant_263" type="Const" version="opset1">
			<data element_type="i64" shape="1" offset="334" size="8" />
			<output>
				<port id="0" precision="I64">
					<dim>1</dim>
				</port>
			</output>
		</layer>
		<layer id="59" name="Constant_265" type="Const" version="opset1">
			<data element_type="i64" shape="1" offset="342" size="8" />
			<output>
				<port id="0" precision="I64">
					<dim>1</dim>
				</port>
			</output>
		</layer>
		<layer id="60" name="Constant_267" type="Const" version="opset1">
			<data element_type="i64" shape="1" offset="272" size="8" />
			<output>
				<port id="0" precision="I64">
					<dim>1</dim>
				</port>
			</output>
		</layer>
		<layer id="61" name="Constant_261" type="Const" version="opset1">
			<data element_type="i64" shape="1" offset="322" size="8" />
			<output>
				<port id="0" precision="I64">
					<dim>1</dim>
				</port>
			</output>
		</layer>
		<layer id="62" name="__module.model.patchifier/aten::slice/Slice_5" type="Slice" version="opset8">
			<input>
				<port id="0" precision="FP32">
					<dim>-1</dim>
					<dim>7</dim>
					<dim>-1</dim>
				</port>
				<port id="1" precision="I64">
					<dim>1</dim>
				</port>
				<port id="2" precision="I64">
					<dim>1</dim>
				</port>
				<port id="3" precision="I64">
					<dim>1</dim>
				</port>
				<port id="4" precision="I64">
					<dim>1</dim>
				</port>
			</input>
			<output>
				<port id="5" precision="FP32" names="112">
					<dim>-1</dim>
					<dim>7</dim>
					<dim>-1</dim>
				</port>
			</output>
		</layer>
		<layer id="63" name="Unsqueeze_3460" type="Unsqueeze" version="opset1">
			<input>
				<port id="0" precision="FP32">
					<dim>-1</dim>
					<dim>7</dim>
					<dim>-1</dim>
				</port>
				<port id="1" precision="I32" />
			</input>
			<output>
				<port id="2" precision="FP32">
					<dim>-1</dim>
					<dim>7</dim>
					<dim>1</dim>
					<dim>-1</dim>
				</port>
			</output>
		</layer>
		<layer id="64" name="Constant_273" type="Const" version="opset1">
			<data element_type="i64" shape="1" offset="342" size="8" />
			<output>
				<port id="0" precision="I64">
					<dim>1</dim>
				</port>
			</output>
		</layer>
		<layer id="65" name="Constant_275" type="Const" version="opset1">
			<data element_type="i64" shape="1" offset="350" size="8" />
			<output>
				<port id="0" precision="I64">
					<dim>1</dim>
				</port>
			</output>
		</layer>
		<layer id="66" name="Constant_277" type="Const" version="opset1">
			<data element_type="i64" shape="1" offset="272" size="8" />
			<output>
				<port id="0" precision="I64">
					<dim>1</dim>
				</port>
			</output>
		</layer>
		<layer id="67" name="Constant_271" type="Const" version="opset1">
			<data element_type="i64" shape="1" offset="322" size="8" />
			<output>
				<port id="0" precision="I64">
					<dim>1</dim>
				</port>
			</output>
		</layer>
		<layer id="68" name="__module.model.patchifier/aten::slice/Slice_6" type="Slice" version="opset8">
			<input>
				<port id="0" precision="FP32">
					<dim>-1</dim>
					<dim>7</dim>
					<dim>-1</dim>
				</port>
				<port id="1" precision="I64">
					<dim>1</dim>
				</port>
				<port id="2" precision="I64">
					<dim>1</dim>
				</port>
				<port id="3" precision="I64">
					<dim>1</dim>
				</port>
				<port id="4" precision="I64">
					<dim>1</dim>
				</port>
			</input>
			<output>
				<port id="5" precision="FP32" names="113">
					<dim>-1</dim>
					<dim>7</dim>
					<dim>-1</dim>
				</port>
			</output>
		</layer>
		<layer id="69" name="Unsqueeze_3461" type="Unsqueeze" version="opset1">
			<input>
				<port id="0" precision="FP32">
					<dim>-1</dim>
					<dim>7</dim>
					<dim>-1</dim>
				</port>
				<port id="1" precision="I32" />
			</input>
			<output>
				<port id="2" precision="FP32">
					<dim>-1</dim>
					<dim>7</dim>
					<dim>1</dim>
					<dim>-1</dim>
				</port>
			</output>
		</layer>
		<layer id="70" name="Constant_283" type="Const" version="opset1">
			<data element_type="i64" shape="1" offset="350" size="8" />
			<output>
				<port id="0" precision="I64">
					<dim>1</dim>
				</port>
			</output>
		</layer>
		<layer id="71" name="Constant_285" type="Const" version="opset1">
			<data element_type="i64" shape="1" offset="358" size="8" />
			<output>
				<port id="0" precision="I64">
					<dim>1</dim>
				</port>
			</output>
		</layer>
		<layer id="72" name="Constant_287" type="Const" version="opset1">
			<data element_type="i64" shape="1" offset="272" size="8" />
			<output>
				<port id="0" precision="I64">
					<dim>1</dim>
				</port>
			</output>
		</layer>
		<layer id="73" name="Constant_281" type="Const" version="opset1">
			<data element_type="i64" shape="1" offset="322" size="8" />
			<output>
				<port id="0" precision="I64">
					<dim>1</dim>
				</port>
			</output>
		</layer>
		<layer id="74" name="__module.model.patchifier/aten::slice/Slice_7" type="Slice" version="opset8">
			<input>
				<port id="0" precision="FP32">
					<dim>-1</dim>
					<dim>7</dim>
					<dim>-1</dim>
				</port>
				<port id="1" precision="I64">
					<dim>1</dim>
				</port>
				<port id="2" precision="I64">
					<dim>1</dim>
				</port>
				<port id="3" precision="I64">
					<dim>1</dim>
				</port>
				<port id="4" precision="I64">
					<dim>1</dim>
				</port>
			</input>
			<output>
				<port id="5" precision="FP32" names="114">
					<dim>-1</dim>
					<dim>7</dim>
					<dim>-1</dim>
				</port>
			</output>
		</layer>
		<layer id="75" name="Unsqueeze_3462" type="Unsqueeze" version="opset1">
			<input>
				<port id="0" precision="FP32">
					<dim>-1</dim>
					<dim>7</dim>
					<dim>-1</dim>
				</port>
				<port id="1" precision="I32" />
			</input>
			<output>
				<port id="2" precision="FP32">
					<dim>-1</dim>
					<dim>7</dim>
					<dim>1</dim>
					<dim>-1</dim>
				</port>
			</output>
		</layer>
		<layer id="76" name="Constant_293" type="Const" version="opset1">
			<data element_type="i64" shape="1" offset="358" size="8" />
			<output>
				<port id="0" precision="I64">
					<dim>1</dim>
				</port>
			</output>
		</layer>
		<layer id="77" name="Constant_295" type="Const" version="opset1">
			<data element_type="i64" shape="1" offset="366" size="8" />
			<output>
				<port id="0" precision="I64">
					<dim>1</dim>
				</port>
			</output>
		</layer>
		<layer id="78" name="Constant_297" type="Const" version="opset1">
			<data element_type="i64" shape="1" offset="272" size="8" />
			<output>
				<port id="0" precision="I64">
					<dim>1</dim>
				</port>
			</output>
		</layer>
		<layer id="79" name="Constant_291" type="Const" version="opset1">
			<data element_type="i64" shape="1" offset="322" size="8" />
			<output>
				<port id="0" precision="I64">
					<dim>1</dim>
				</port>
			</output>
		</layer>
		<layer id="80" name="__module.model.patchifier/aten::slice/Slice_8" type="Slice" version="opset8">
			<input>
				<port id="0" precision="FP32">
					<dim>-1</dim>
					<dim>7</dim>
					<dim>-1</dim>
				</port>
				<port id="1" precision="I64">
					<dim>1</dim>
				</port>
				<port id="2" precision="I64">
					<dim>1</dim>
				</port>
				<port id="3" precision="I64">
					<dim>1</dim>
				</port>
				<port id="4" precision="I64">
					<dim>1</dim>
				</port>
			</input>
			<output>
				<port id="5" precision="FP32" names="115">
					<dim>-1</dim>
					<dim>7</dim>
					<dim>-1</dim>
				</port>
			</output>
		</layer>
		<layer id="81" name="Unsqueeze_3463" type="Unsqueeze" version="opset1">
			<input>
				<port id="0" precision="FP32">
					<dim>-1</dim>
					<dim>7</dim>
					<dim>-1</dim>
				</port>
				<port id="1" precision="I32" />
			</input>
			<output>
				<port id="2" precision="FP32">
					<dim>-1</dim>
					<dim>7</dim>
					<dim>1</dim>
					<dim>-1</dim>
				</port>
			</output>
		</layer>
		<layer id="82" name="Constant_303" type="Const" version="opset1">
			<data element_type="i64" shape="1" offset="366" size="8" />
			<output>
				<port id="0" precision="I64">
					<dim>1</dim>
				</port>
			</output>
		</layer>
		<layer id="83" name="Constant_305" type="Const" version="opset1">
			<data element_type="i64" shape="1" offset="374" size="8" />
			<output>
				<port id="0" precision="I64">
					<dim>1</dim>
				</port>
			</output>
		</layer>
		<layer id="84" name="Constant_307" type="Const" version="opset1">
			<data element_type="i64" shape="1" offset="272" size="8" />
			<output>
				<port id="0" precision="I64">
					<dim>1</dim>
				</port>
			</output>
		</layer>
		<layer id="85" name="Constant_301" type="Const" version="opset1">
			<data element_type="i64" shape="1" offset="322" size="8" />
			<output>
				<port id="0" precision="I64">
					<dim>1</dim>
				</port>
			</output>
		</layer>
		<layer id="86" name="__module.model.patchifier/aten::slice/Slice_9" type="Slice" version="opset8">
			<input>
				<port id="0" precision="FP32">
					<dim>-1</dim>
					<dim>7</dim>
					<dim>-1</dim>
				</port>
				<port id="1" precision="I64">
					<dim>1</dim>
				</port>
				<port id="2" precision="I64">
					<dim>1</dim>
				</port>
				<port id="3" precision="I64">
					<dim>1</dim>
				</port>
				<port id="4" precision="I64">
					<dim>1</dim>
				</port>
			</input>
			<output>
				<port id="5" precision="FP32" names="116">
					<dim>-1</dim>
					<dim>7</dim>
					<dim>-1</dim>
				</port>
			</output>
		</layer>
		<layer id="87" name="Unsqueeze_3464" type="Unsqueeze" version="opset1">
			<input>
				<port id="0" precision="FP32">
					<dim>-1</dim>
					<dim>7</dim>
					<dim>-1</dim>
				</port>
				<port id="1" precision="I32" />
			</input>
			<output>
				<port id="2" precision="FP32">
					<dim>-1</dim>
					<dim>7</dim>
					<dim>1</dim>
					<dim>-1</dim>
				</port>
			</output>
		</layer>
		<layer id="88" name="Constant_313" type="Const" version="opset1">
			<data element_type="i64" shape="1" offset="374" size="8" />
			<output>
				<port id="0" precision="I64">
					<dim>1</dim>
				</port>
			</output>
		</layer>
		<layer id="89" name="Constant_315" type="Const" version="opset1">
			<data element_type="i64" shape="1" offset="382" size="8" />
			<output>
				<port id="0" precision="I64">
					<dim>1</dim>
				</port>
			</output>
		</layer>
		<layer id="90" name="Constant_317" type="Const" version="opset1">
			<data element_type="i64" shape="1" offset="272" size="8" />
			<output>
				<port id="0" precision="I64">
					<dim>1</dim>
				</port>
			</output>
		</layer>
		<layer id="91" name="Constant_311" type="Const" version="opset1">
			<data element_type="i64" shape="1" offset="322" size="8" />
			<output>
				<port id="0" precision="I64">
					<dim>1</dim>
				</port>
			</output>
		</layer>
		<layer id="92" name="__module.model.patchifier/aten::slice/Slice_10" type="Slice" version="opset8">
			<input>
				<port id="0" precision="FP32">
					<dim>-1</dim>
					<dim>7</dim>
					<dim>-1</dim>
				</port>
				<port id="1" precision="I64">
					<dim>1</dim>
				</port>
				<port id="2" precision="I64">
					<dim>1</dim>
				</port>
				<port id="3" precision="I64">
					<dim>1</dim>
				</port>
				<port id="4" precision="I64">
					<dim>1</dim>
				</port>
			</input>
			<output>
				<port id="5" precision="FP32" names="117">
					<dim>-1</dim>
					<dim>7</dim>
					<dim>-1</dim>
				</port>
			</output>
		</layer>
		<layer id="93" name="Unsqueeze_3465" type="Unsqueeze" version="opset1">
			<input>
				<port id="0" precision="FP32">
					<dim>-1</dim>
					<dim>7</dim>
					<dim>-1</dim>
				</port>
				<port id="1" precision="I32" />
			</input>
			<output>
				<port id="2" precision="FP32">
					<dim>-1</dim>
					<dim>7</dim>
					<dim>1</dim>
					<dim>-1</dim>
				</port>
			</output>
		</layer>
		<layer id="94" name="Constant_323" type="Const" version="opset1">
			<data element_type="i64" shape="1" offset="382" size="8" />
			<output>
				<port id="0" precision="I64">
					<dim>1</dim>
				</port>
			</output>
		</layer>
		<layer id="95" name="Constant_325" type="Const" version="opset1">
			<data element_type="i64" shape="1" offset="390" size="8" />
			<output>
				<port id="0" precision="I64">
					<dim>1</dim>
				</port>
			</output>
		</layer>
		<layer id="96" name="Constant_327" type="Const" version="opset1">
			<data element_type="i64" shape="1" offset="272" size="8" />
			<output>
				<port id="0" precision="I64">
					<dim>1</dim>
				</port>
			</output>
		</layer>
		<layer id="97" name="Constant_321" type="Const" version="opset1">
			<data element_type="i64" shape="1" offset="322" size="8" />
			<output>
				<port id="0" precision="I64">
					<dim>1</dim>
				</port>
			</output>
		</layer>
		<layer id="98" name="__module.model.patchifier/aten::slice/Slice_11" type="Slice" version="opset8">
			<input>
				<port id="0" precision="FP32">
					<dim>-1</dim>
					<dim>7</dim>
					<dim>-1</dim>
				</port>
				<port id="1" precision="I64">
					<dim>1</dim>
				</port>
				<port id="2" precision="I64">
					<dim>1</dim>
				</port>
				<port id="3" precision="I64">
					<dim>1</dim>
				</port>
				<port id="4" precision="I64">
					<dim>1</dim>
				</port>
			</input>
			<output>
				<port id="5" precision="FP32" names="118">
					<dim>-1</dim>
					<dim>7</dim>
					<dim>-1</dim>
				</port>
			</output>
		</layer>
		<layer id="99" name="Unsqueeze_3466" type="Unsqueeze" version="opset1">
			<input>
				<port id="0" precision="FP32">
					<dim>-1</dim>
					<dim>7</dim>
					<dim>-1</dim>
				</port>
				<port id="1" precision="I32" />
			</input>
			<output>
				<port id="2" precision="FP32">
					<dim>-1</dim>
					<dim>7</dim>
					<dim>1</dim>
					<dim>-1</dim>
				</port>
			</output>
		</layer>
		<layer id="100" name="Constant_333" type="Const" version="opset1">
			<data element_type="i64" shape="1" offset="390" size="8" />
			<output>
				<port id="0" precision="I64">
					<dim>1</dim>
				</port>
			</output>
		</layer>
		<layer id="101" name="Constant_335" type="Const" version="opset1">
			<data element_type="i64" shape="1" offset="398" size="8" />
			<output>
				<port id="0" precision="I64">
					<dim>1</dim>
				</port>
			</output>
		</layer>
		<layer id="102" name="Constant_337" type="Const" version="opset1">
			<data element_type="i64" shape="1" offset="272" size="8" />
			<output>
				<port id="0" precision="I64">
					<dim>1</dim>
				</port>
			</output>
		</layer>
		<layer id="103" name="Constant_331" type="Const" version="opset1">
			<data element_type="i64" shape="1" offset="322" size="8" />
			<output>
				<port id="0" precision="I64">
					<dim>1</dim>
				</port>
			</output>
		</layer>
		<layer id="104" name="__module.model.patchifier/aten::slice/Slice_12" type="Slice" version="opset8">
			<input>
				<port id="0" precision="FP32">
					<dim>-1</dim>
					<dim>7</dim>
					<dim>-1</dim>
				</port>
				<port id="1" precision="I64">
					<dim>1</dim>
				</port>
				<port id="2" precision="I64">
					<dim>1</dim>
				</port>
				<port id="3" precision="I64">
					<dim>1</dim>
				</port>
				<port id="4" precision="I64">
					<dim>1</dim>
				</port>
			</input>
			<output>
				<port id="5" precision="FP32" names="119">
					<dim>-1</dim>
					<dim>7</dim>
					<dim>-1</dim>
				</port>
			</output>
		</layer>
		<layer id="105" name="Unsqueeze_3467" type="Unsqueeze" version="opset1">
			<input>
				<port id="0" precision="FP32">
					<dim>-1</dim>
					<dim>7</dim>
					<dim>-1</dim>
				</port>
				<port id="1" precision="I32" />
			</input>
			<output>
				<port id="2" precision="FP32">
					<dim>-1</dim>
					<dim>7</dim>
					<dim>1</dim>
					<dim>-1</dim>
				</port>
			</output>
		</layer>
		<layer id="106" name="Constant_343" type="Const" version="opset1">
			<data element_type="i64" shape="1" offset="398" size="8" />
			<output>
				<port id="0" precision="I64">
					<dim>1</dim>
				</port>
			</output>
		</layer>
		<layer id="107" name="Constant_345" type="Const" version="opset1">
			<data element_type="i64" shape="1" offset="406" size="8" />
			<output>
				<port id="0" precision="I64">
					<dim>1</dim>
				</port>
			</output>
		</layer>
		<layer id="108" name="Constant_347" type="Const" version="opset1">
			<data element_type="i64" shape="1" offset="272" size="8" />
			<output>
				<port id="0" precision="I64">
					<dim>1</dim>
				</port>
			</output>
		</layer>
		<layer id="109" name="Constant_341" type="Const" version="opset1">
			<data element_type="i64" shape="1" offset="322" size="8" />
			<output>
				<port id="0" precision="I64">
					<dim>1</dim>
				</port>
			</output>
		</layer>
		<layer id="110" name="__module.model.patchifier/aten::slice/Slice_13" type="Slice" version="opset8">
			<input>
				<port id="0" precision="FP32">
					<dim>-1</dim>
					<dim>7</dim>
					<dim>-1</dim>
				</port>
				<port id="1" precision="I64">
					<dim>1</dim>
				</port>
				<port id="2" precision="I64">
					<dim>1</dim>
				</port>
				<port id="3" precision="I64">
					<dim>1</dim>
				</port>
				<port id="4" precision="I64">
					<dim>1</dim>
				</port>
			</input>
			<output>
				<port id="5" precision="FP32" names="120">
					<dim>-1</dim>
					<dim>7</dim>
					<dim>-1</dim>
				</port>
			</output>
		</layer>
		<layer id="111" name="Unsqueeze_3468" type="Unsqueeze" version="opset1">
			<input>
				<port id="0" precision="FP32">
					<dim>-1</dim>
					<dim>7</dim>
					<dim>-1</dim>
				</port>
				<port id="1" precision="I32" />
			</input>
			<output>
				<port id="2" precision="FP32">
					<dim>-1</dim>
					<dim>7</dim>
					<dim>1</dim>
					<dim>-1</dim>
				</port>
			</output>
		</layer>
		<layer id="112" name="Constant_353" type="Const" version="opset1">
			<data element_type="i64" shape="1" offset="406" size="8" />
			<output>
				<port id="0" precision="I64">
					<dim>1</dim>
				</port>
			</output>
		</layer>
		<layer id="113" name="Constant_355" type="Const" version="opset1">
			<data element_type="i64" shape="1" offset="414" size="8" />
			<output>
				<port id="0" precision="I64">
					<dim>1</dim>
				</port>
			</output>
		</layer>
		<layer id="114" name="Constant_357" type="Const" version="opset1">
			<data element_type="i64" shape="1" offset="272" size="8" />
			<output>
				<port id="0" precision="I64">
					<dim>1</dim>
				</port>
			</output>
		</layer>
		<layer id="115" name="Constant_351" type="Const" version="opset1">
			<data element_type="i64" shape="1" offset="322" size="8" />
			<output>
				<port id="0" precision="I64">
					<dim>1</dim>
				</port>
			</output>
		</layer>
		<layer id="116" name="__module.model.patchifier/aten::slice/Slice_14" type="Slice" version="opset8">
			<input>
				<port id="0" precision="FP32">
					<dim>-1</dim>
					<dim>7</dim>
					<dim>-1</dim>
				</port>
				<port id="1" precision="I64">
					<dim>1</dim>
				</port>
				<port id="2" precision="I64">
					<dim>1</dim>
				</port>
				<port id="3" precision="I64">
					<dim>1</dim>
				</port>
				<port id="4" precision="I64">
					<dim>1</dim>
				</port>
			</input>
			<output>
				<port id="5" precision="FP32" names="121">
					<dim>-1</dim>
					<dim>7</dim>
					<dim>-1</dim>
				</port>
			</output>
		</layer>
		<layer id="117" name="Unsqueeze_3469" type="Unsqueeze" version="opset1">
			<input>
				<port id="0" precision="FP32">
					<dim>-1</dim>
					<dim>7</dim>
					<dim>-1</dim>
				</port>
				<port id="1" precision="I32" />
			</input>
			<output>
				<port id="2" precision="FP32">
					<dim>-1</dim>
					<dim>7</dim>
					<dim>1</dim>
					<dim>-1</dim>
				</port>
			</output>
		</layer>
		<layer id="118" name="Constant_363" type="Const" version="opset1">
			<data element_type="i64" shape="1" offset="414" size="8" />
			<output>
				<port id="0" precision="I64">
					<dim>1</dim>
				</port>
			</output>
		</layer>
		<layer id="119" name="Constant_365" type="Const" version="opset1">
			<data element_type="i64" shape="1" offset="422" size="8" />
			<output>
				<port id="0" precision="I64">
					<dim>1</dim>
				</port>
			</output>
		</layer>
		<layer id="120" name="Constant_367" type="Const" version="opset1">
			<data element_type="i64" shape="1" offset="272" size="8" />
			<output>
				<port id="0" precision="I64">
					<dim>1</dim>
				</port>
			</output>
		</layer>
		<layer id="121" name="Constant_361" type="Const" version="opset1">
			<data element_type="i64" shape="1" offset="322" size="8" />
			<output>
				<port id="0" precision="I64">
					<dim>1</dim>
				</port>
			</output>
		</layer>
		<layer id="122" name="__module.model.patchifier/aten::slice/Slice_15" type="Slice" version="opset8">
			<input>
				<port id="0" precision="FP32">
					<dim>-1</dim>
					<dim>7</dim>
					<dim>-1</dim>
				</port>
				<port id="1" precision="I64">
					<dim>1</dim>
				</port>
				<port id="2" precision="I64">
					<dim>1</dim>
				</port>
				<port id="3" precision="I64">
					<dim>1</dim>
				</port>
				<port id="4" precision="I64">
					<dim>1</dim>
				</port>
			</input>
			<output>
				<port id="5" precision="FP32" names="122">
					<dim>-1</dim>
					<dim>7</dim>
					<dim>-1</dim>
				</port>
			</output>
		</layer>
		<layer id="123" name="Unsqueeze_3470" type="Unsqueeze" version="opset1">
			<input>
				<port id="0" precision="FP32">
					<dim>-1</dim>
					<dim>7</dim>
					<dim>-1</dim>
				</port>
				<port id="1" precision="I32" />
			</input>
			<output>
				<port id="2" precision="FP32">
					<dim>-1</dim>
					<dim>7</dim>
					<dim>1</dim>
					<dim>-1</dim>
				</port>
			</output>
		</layer>
		<layer id="124" name="Constant_373" type="Const" version="opset1">
			<data element_type="i64" shape="1" offset="422" size="8" />
			<output>
				<port id="0" precision="I64">
					<dim>1</dim>
				</port>
			</output>
		</layer>
		<layer id="125" name="Constant_375" type="Const" version="opset1">
			<data element_type="i64" shape="1" offset="430" size="8" />
			<output>
				<port id="0" precision="I64">
					<dim>1</dim>
				</port>
			</output>
		</layer>
		<layer id="126" name="Constant_377" type="Const" version="opset1">
			<data element_type="i64" shape="1" offset="272" size="8" />
			<output>
				<port id="0" precision="I64">
					<dim>1</dim>
				</port>
			</output>
		</layer>
		<layer id="127" name="Constant_371" type="Const" version="opset1">
			<data element_type="i64" shape="1" offset="322" size="8" />
			<output>
				<port id="0" precision="I64">
					<dim>1</dim>
				</port>
			</output>
		</layer>
		<layer id="128" name="__module.model.patchifier/aten::slice/Slice_16" type="Slice" version="opset8">
			<input>
				<port id="0" precision="FP32">
					<dim>-1</dim>
					<dim>7</dim>
					<dim>-1</dim>
				</port>
				<port id="1" precision="I64">
					<dim>1</dim>
				</port>
				<port id="2" precision="I64">
					<dim>1</dim>
				</port>
				<port id="3" precision="I64">
					<dim>1</dim>
				</port>
				<port id="4" precision="I64">
					<dim>1</dim>
				</port>
			</input>
			<output>
				<port id="5" precision="FP32" names="123">
					<dim>-1</dim>
					<dim>7</dim>
					<dim>-1</dim>
				</port>
			</output>
		</layer>
		<layer id="129" name="Unsqueeze_3471" type="Unsqueeze" version="opset1">
			<input>
				<port id="0" precision="FP32">
					<dim>-1</dim>
					<dim>7</dim>
					<dim>-1</dim>
				</port>
				<port id="1" precision="I32" />
			</input>
			<output>
				<port id="2" precision="FP32">
					<dim>-1</dim>
					<dim>7</dim>
					<dim>1</dim>
					<dim>-1</dim>
				</port>
			</output>
		</layer>
		<layer id="130" name="Constant_383" type="Const" version="opset1">
			<data element_type="i64" shape="1" offset="430" size="8" />
			<output>
				<port id="0" precision="I64">
					<dim>1</dim>
				</port>
			</output>
		</layer>
		<layer id="131" name="Constant_385" type="Const" version="opset1">
			<data element_type="i64" shape="1" offset="438" size="8" />
			<output>
				<port id="0" precision="I64">
					<dim>1</dim>
				</port>
			</output>
		</layer>
		<layer id="132" name="Constant_387" type="Const" version="opset1">
			<data element_type="i64" shape="1" offset="272" size="8" />
			<output>
				<port id="0" precision="I64">
					<dim>1</dim>
				</port>
			</output>
		</layer>
		<layer id="133" name="Constant_381" type="Const" version="opset1">
			<data element_type="i64" shape="1" offset="322" size="8" />
			<output>
				<port id="0" precision="I64">
					<dim>1</dim>
				</port>
			</output>
		</layer>
		<layer id="134" name="__module.model.patchifier/aten::slice/Slice_17" type="Slice" version="opset8">
			<input>
				<port id="0" precision="FP32">
					<dim>-1</dim>
					<dim>7</dim>
					<dim>-1</dim>
				</port>
				<port id="1" precision="I64">
					<dim>1</dim>
				</port>
				<port id="2" precision="I64">
					<dim>1</dim>
				</port>
				<port id="3" precision="I64">
					<dim>1</dim>
				</port>
				<port id="4" precision="I64">
					<dim>1</dim>
				</port>
			</input>
			<output>
				<port id="5" precision="FP32" names="124">
					<dim>-1</dim>
					<dim>7</dim>
					<dim>-1</dim>
				</port>
			</output>
		</layer>
		<layer id="135" name="Unsqueeze_3472" type="Unsqueeze" version="opset1">
			<input>
				<port id="0" precision="FP32">
					<dim>-1</dim>
					<dim>7</dim>
					<dim>-1</dim>
				</port>
				<port id="1" precision="I32" />
			</input>
			<output>
				<port id="2" precision="FP32">
					<dim>-1</dim>
					<dim>7</dim>
					<dim>1</dim>
					<dim>-1</dim>
				</port>
			</output>
		</layer>
		<layer id="136" name="Constant_393" type="Const" version="opset1">
			<data element_type="i64" shape="1" offset="438" size="8" />
			<output>
				<port id="0" precision="I64">
					<dim>1</dim>
				</port>
			</output>
		</layer>
		<layer id="137" name="Constant_395" type="Const" version="opset1">
			<data element_type="i64" shape="1" offset="446" size="8" />
			<output>
				<port id="0" precision="I64">
					<dim>1</dim>
				</port>
			</output>
		</layer>
		<layer id="138" name="Constant_397" type="Const" version="opset1">
			<data element_type="i64" shape="1" offset="272" size="8" />
			<output>
				<port id="0" precision="I64">
					<dim>1</dim>
				</port>
			</output>
		</layer>
		<layer id="139" name="Constant_391" type="Const" version="opset1">
			<data element_type="i64" shape="1" offset="322" size="8" />
			<output>
				<port id="0" precision="I64">
					<dim>1</dim>
				</port>
			</output>
		</layer>
		<layer id="140" name="__module.model.patchifier/aten::slice/Slice_18" type="Slice" version="opset8">
			<input>
				<port id="0" precision="FP32">
					<dim>-1</dim>
					<dim>7</dim>
					<dim>-1</dim>
				</port>
				<port id="1" precision="I64">
					<dim>1</dim>
				</port>
				<port id="2" precision="I64">
					<dim>1</dim>
				</port>
				<port id="3" precision="I64">
					<dim>1</dim>
				</port>
				<port id="4" precision="I64">
					<dim>1</dim>
				</port>
			</input>
			<output>
				<port id="5" precision="FP32" names="125">
					<dim>-1</dim>
					<dim>7</dim>
					<dim>-1</dim>
				</port>
			</output>
		</layer>
		<layer id="141" name="Unsqueeze_3473" type="Unsqueeze" version="opset1">
			<input>
				<port id="0" precision="FP32">
					<dim>-1</dim>
					<dim>7</dim>
					<dim>-1</dim>
				</port>
				<port id="1" precision="I32" />
			</input>
			<output>
				<port id="2" precision="FP32">
					<dim>-1</dim>
					<dim>7</dim>
					<dim>1</dim>
					<dim>-1</dim>
				</port>
			</output>
		</layer>
		<layer id="142" name="Constant_403" type="Const" version="opset1">
			<data element_type="i64" shape="1" offset="446" size="8" />
			<output>
				<port id="0" precision="I64">
					<dim>1</dim>
				</port>
			</output>
		</layer>
		<layer id="143" name="Constant_405" type="Const" version="opset1">
			<data element_type="i64" shape="1" offset="454" size="8" />
			<output>
				<port id="0" precision="I64">
					<dim>1</dim>
				</port>
			</output>
		</layer>
		<layer id="144" name="Constant_407" type="Const" version="opset1">
			<data element_type="i64" shape="1" offset="272" size="8" />
			<output>
				<port id="0" precision="I64">
					<dim>1</dim>
				</port>
			</output>
		</layer>
		<layer id="145" name="Constant_401" type="Const" version="opset1">
			<data element_type="i64" shape="1" offset="322" size="8" />
			<output>
				<port id="0" precision="I64">
					<dim>1</dim>
				</port>
			</output>
		</layer>
		<layer id="146" name="__module.model.patchifier/aten::slice/Slice_19" type="Slice" version="opset8">
			<input>
				<port id="0" precision="FP32">
					<dim>-1</dim>
					<dim>7</dim>
					<dim>-1</dim>
				</port>
				<port id="1" precision="I64">
					<dim>1</dim>
				</port>
				<port id="2" precision="I64">
					<dim>1</dim>
				</port>
				<port id="3" precision="I64">
					<dim>1</dim>
				</port>
				<port id="4" precision="I64">
					<dim>1</dim>
				</port>
			</input>
			<output>
				<port id="5" precision="FP32" names="126">
					<dim>-1</dim>
					<dim>7</dim>
					<dim>-1</dim>
				</port>
			</output>
		</layer>
		<layer id="147" name="Unsqueeze_3474" type="Unsqueeze" version="opset1">
			<input>
				<port id="0" precision="FP32">
					<dim>-1</dim>
					<dim>7</dim>
					<dim>-1</dim>
				</port>
				<port id="1" precision="I32" />
			</input>
			<output>
				<port id="2" precision="FP32">
					<dim>-1</dim>
					<dim>7</dim>
					<dim>1</dim>
					<dim>-1</dim>
				</port>
			</output>
		</layer>
		<layer id="148" name="Constant_413" type="Const" version="opset1">
			<data element_type="i64" shape="1" offset="454" size="8" />
			<output>
				<port id="0" precision="I64">
					<dim>1</dim>
				</port>
			</output>
		</layer>
		<layer id="149" name="Constant_415" type="Const" version="opset1">
			<data element_type="i64" shape="1" offset="462" size="8" />
			<output>
				<port id="0" precision="I64">
					<dim>1</dim>
				</port>
			</output>
		</layer>
		<layer id="150" name="Constant_417" type="Const" version="opset1">
			<data element_type="i64" shape="1" offset="272" size="8" />
			<output>
				<port id="0" precision="I64">
					<dim>1</dim>
				</port>
			</output>
		</layer>
		<layer id="151" name="Constant_411" type="Const" version="opset1">
			<data element_type="i64" shape="1" offset="322" size="8" />
			<output>
				<port id="0" precision="I64">
					<dim>1</dim>
				</port>
			</output>
		</layer>
		<layer id="152" name="__module.model.patchifier/aten::slice/Slice_20" type="Slice" version="opset8">
			<input>
				<port id="0" precision="FP32">
					<dim>-1</dim>
					<dim>7</dim>
					<dim>-1</dim>
				</port>
				<port id="1" precision="I64">
					<dim>1</dim>
				</port>
				<port id="2" precision="I64">
					<dim>1</dim>
				</port>
				<port id="3" precision="I64">
					<dim>1</dim>
				</port>
				<port id="4" precision="I64">
					<dim>1</dim>
				</port>
			</input>
			<output>
				<port id="5" precision="FP32" names="127">
					<dim>-1</dim>
					<dim>7</dim>
					<dim>-1</dim>
				</port>
			</output>
		</layer>
		<layer id="153" name="Unsqueeze_3475" type="Unsqueeze" version="opset1">
			<input>
				<port id="0" precision="FP32">
					<dim>-1</dim>
					<dim>7</dim>
					<dim>-1</dim>
				</port>
				<port id="1" precision="I32" />
			</input>
			<output>
				<port id="2" precision="FP32">
					<dim>-1</dim>
					<dim>7</dim>
					<dim>1</dim>
					<dim>-1</dim>
				</port>
			</output>
		</layer>
		<layer id="154" name="Constant_423" type="Const" version="opset1">
			<data element_type="i64" shape="1" offset="462" size="8" />
			<output>
				<port id="0" precision="I64">
					<dim>1</dim>
				</port>
			</output>
		</layer>
		<layer id="155" name="Constant_425" type="Const" version="opset1">
			<data element_type="i64" shape="1" offset="470" size="8" />
			<output>
				<port id="0" precision="I64">
					<dim>1</dim>
				</port>
			</output>
		</layer>
		<layer id="156" name="Constant_427" type="Const" version="opset1">
			<data element_type="i64" shape="1" offset="272" size="8" />
			<output>
				<port id="0" precision="I64">
					<dim>1</dim>
				</port>
			</output>
		</layer>
		<layer id="157" name="Constant_421" type="Const" version="opset1">
			<data element_type="i64" shape="1" offset="322" size="8" />
			<output>
				<port id="0" precision="I64">
					<dim>1</dim>
				</port>
			</output>
		</layer>
		<layer id="158" name="__module.model.patchifier/aten::slice/Slice_21" type="Slice" version="opset8">
			<input>
				<port id="0" precision="FP32">
					<dim>-1</dim>
					<dim>7</dim>
					<dim>-1</dim>
				</port>
				<port id="1" precision="I64">
					<dim>1</dim>
				</port>
				<port id="2" precision="I64">
					<dim>1</dim>
				</port>
				<port id="3" precision="I64">
					<dim>1</dim>
				</port>
				<port id="4" precision="I64">
					<dim>1</dim>
				</port>
			</input>
			<output>
				<port id="5" precision="FP32" names="128">
					<dim>-1</dim>
					<dim>7</dim>
					<dim>-1</dim>
				</port>
			</output>
		</layer>
		<layer id="159" name="Unsqueeze_3476" type="Unsqueeze" version="opset1">
			<input>
				<port id="0" precision="FP32">
					<dim>-1</dim>
					<dim>7</dim>
					<dim>-1</dim>
				</port>
				<port id="1" precision="I32" />
			</input>
			<output>
				<port id="2" precision="FP32">
					<dim>-1</dim>
					<dim>7</dim>
					<dim>1</dim>
					<dim>-1</dim>
				</port>
			</output>
		</layer>
		<layer id="160" name="Constant_433" type="Const" version="opset1">
			<data element_type="i64" shape="1" offset="470" size="8" />
			<output>
				<port id="0" precision="I64">
					<dim>1</dim>
				</port>
			</output>
		</layer>
		<layer id="161" name="Constant_435" type="Const" version="opset1">
			<data element_type="i64" shape="1" offset="478" size="8" />
			<output>
				<port id="0" precision="I64">
					<dim>1</dim>
				</port>
			</output>
		</layer>
		<layer id="162" name="Constant_437" type="Const" version="opset1">
			<data element_type="i64" shape="1" offset="272" size="8" />
			<output>
				<port id="0" precision="I64">
					<dim>1</dim>
				</port>
			</output>
		</layer>
		<layer id="163" name="Constant_431" type="Const" version="opset1">
			<data element_type="i64" shape="1" offset="322" size="8" />
			<output>
				<port id="0" precision="I64">
					<dim>1</dim>
				</port>
			</output>
		</layer>
		<layer id="164" name="__module.model.patchifier/aten::slice/Slice_22" type="Slice" version="opset8">
			<input>
				<port id="0" precision="FP32">
					<dim>-1</dim>
					<dim>7</dim>
					<dim>-1</dim>
				</port>
				<port id="1" precision="I64">
					<dim>1</dim>
				</port>
				<port id="2" precision="I64">
					<dim>1</dim>
				</port>
				<port id="3" precision="I64">
					<dim>1</dim>
				</port>
				<port id="4" precision="I64">
					<dim>1</dim>
				</port>
			</input>
			<output>
				<port id="5" precision="FP32" names="129">
					<dim>-1</dim>
					<dim>7</dim>
					<dim>-1</dim>
				</port>
			</output>
		</layer>
		<layer id="165" name="Unsqueeze_3477" type="Unsqueeze" version="opset1">
			<input>
				<port id="0" precision="FP32">
					<dim>-1</dim>
					<dim>7</dim>
					<dim>-1</dim>
				</port>
				<port id="1" precision="I32" />
			</input>
			<output>
				<port id="2" precision="FP32">
					<dim>-1</dim>
					<dim>7</dim>
					<dim>1</dim>
					<dim>-1</dim>
				</port>
			</output>
		</layer>
		<layer id="166" name="Constant_443" type="Const" version="opset1">
			<data element_type="i64" shape="1" offset="478" size="8" />
			<output>
				<port id="0" precision="I64">
					<dim>1</dim>
				</port>
			</output>
		</layer>
		<layer id="167" name="Constant_445" type="Const" version="opset1">
			<data element_type="i64" shape="1" offset="486" size="8" />
			<output>
				<port id="0" precision="I64">
					<dim>1</dim>
				</port>
			</output>
		</layer>
		<layer id="168" name="Constant_447" type="Const" version="opset1">
			<data element_type="i64" shape="1" offset="272" size="8" />
			<output>
				<port id="0" precision="I64">
					<dim>1</dim>
				</port>
			</output>
		</layer>
		<layer id="169" name="Constant_441" type="Const" version="opset1">
			<data element_type="i64" shape="1" offset="322" size="8" />
			<output>
				<port id="0" precision="I64">
					<dim>1</dim>
				</port>
			</output>
		</layer>
		<layer id="170" name="__module.model.patchifier/aten::slice/Slice_23" type="Slice" version="opset8">
			<input>
				<port id="0" precision="FP32">
					<dim>-1</dim>
					<dim>7</dim>
					<dim>-1</dim>
				</port>
				<port id="1" precision="I64">
					<dim>1</dim>
				</port>
				<port id="2" precision="I64">
					<dim>1</dim>
				</port>
				<port id="3" precision="I64">
					<dim>1</dim>
				</port>
				<port id="4" precision="I64">
					<dim>1</dim>
				</port>
			</input>
			<output>
				<port id="5" precision="FP32" names="130">
					<dim>-1</dim>
					<dim>7</dim>
					<dim>-1</dim>
				</port>
			</output>
		</layer>
		<layer id="171" name="Unsqueeze_3478" type="Unsqueeze" version="opset1">
			<input>
				<port id="0" precision="FP32">
					<dim>-1</dim>
					<dim>7</dim>
					<dim>-1</dim>
				</port>
				<port id="1" precision="I32" />
			</input>
			<output>
				<port id="2" precision="FP32">
					<dim>-1</dim>
					<dim>7</dim>
					<dim>1</dim>
					<dim>-1</dim>
				</port>
			</output>
		</layer>
		<layer id="172" name="Constant_453" type="Const" version="opset1">
			<data element_type="i64" shape="1" offset="486" size="8" />
			<output>
				<port id="0" precision="I64">
					<dim>1</dim>
				</port>
			</output>
		</layer>
		<layer id="173" name="Constant_455" type="Const" version="opset1">
			<data element_type="i64" shape="1" offset="494" size="8" />
			<output>
				<port id="0" precision="I64">
					<dim>1</dim>
				</port>
			</output>
		</layer>
		<layer id="174" name="Constant_457" type="Const" version="opset1">
			<data element_type="i64" shape="1" offset="272" size="8" />
			<output>
				<port id="0" precision="I64">
					<dim>1</dim>
				</port>
			</output>
		</layer>
		<layer id="175" name="Constant_451" type="Const" version="opset1">
			<data element_type="i64" shape="1" offset="322" size="8" />
			<output>
				<port id="0" precision="I64">
					<dim>1</dim>
				</port>
			</output>
		</layer>
		<layer id="176" name="__module.model.patchifier/aten::slice/Slice_24" type="Slice" version="opset8">
			<input>
				<port id="0" precision="FP32">
					<dim>-1</dim>
					<dim>7</dim>
					<dim>-1</dim>
				</port>
				<port id="1" precision="I64">
					<dim>1</dim>
				</port>
				<port id="2" precision="I64">
					<dim>1</dim>
				</port>
				<port id="3" precision="I64">
					<dim>1</dim>
				</port>
				<port id="4" precision="I64">
					<dim>1</dim>
				</port>
			</input>
			<output>
				<port id="5" precision="FP32" names="131">
					<dim>-1</dim>
					<dim>7</dim>
					<dim>-1</dim>
				</port>
			</output>
		</layer>
		<layer id="177" name="Unsqueeze_3479" type="Unsqueeze" version="opset1">
			<input>
				<port id="0" precision="FP32">
					<dim>-1</dim>
					<dim>7</dim>
					<dim>-1</dim>
				</port>
				<port id="1" precision="I32" />
			</input>
			<output>
				<port id="2" precision="FP32">
					<dim>-1</dim>
					<dim>7</dim>
					<dim>1</dim>
					<dim>-1</dim>
				</port>
			</output>
		</layer>
		<layer id="178" name="Constant_463" type="Const" version="opset1">
			<data element_type="i64" shape="1" offset="494" size="8" />
			<output>
				<port id="0" precision="I64">
					<dim>1</dim>
				</port>
			</output>
		</layer>
		<layer id="179" name="Constant_465" type="Const" version="opset1">
			<data element_type="i64" shape="1" offset="502" size="8" />
			<output>
				<port id="0" precision="I64">
					<dim>1</dim>
				</port>
			</output>
		</layer>
		<layer id="180" name="Constant_467" type="Const" version="opset1">
			<data element_type="i64" shape="1" offset="272" size="8" />
			<output>
				<port id="0" precision="I64">
					<dim>1</dim>
				</port>
			</output>
		</layer>
		<layer id="181" name="Constant_461" type="Const" version="opset1">
			<data element_type="i64" shape="1" offset="322" size="8" />
			<output>
				<port id="0" precision="I64">
					<dim>1</dim>
				</port>
			</output>
		</layer>
		<layer id="182" name="__module.model.patchifier/aten::slice/Slice_25" type="Slice" version="opset8">
			<input>
				<port id="0" precision="FP32">
					<dim>-1</dim>
					<dim>7</dim>
					<dim>-1</dim>
				</port>
				<port id="1" precision="I64">
					<dim>1</dim>
				</port>
				<port id="2" precision="I64">
					<dim>1</dim>
				</port>
				<port id="3" precision="I64">
					<dim>1</dim>
				</port>
				<port id="4" precision="I64">
					<dim>1</dim>
				</port>
			</input>
			<output>
				<port id="5" precision="FP32" names="132">
					<dim>-1</dim>
					<dim>7</dim>
					<dim>-1</dim>
				</port>
			</output>
		</layer>
		<layer id="183" name="Unsqueeze_3480" type="Unsqueeze" version="opset1">
			<input>
				<port id="0" precision="FP32">
					<dim>-1</dim>
					<dim>7</dim>
					<dim>-1</dim>
				</port>
				<port id="1" precision="I32" />
			</input>
			<output>
				<port id="2" precision="FP32">
					<dim>-1</dim>
					<dim>7</dim>
					<dim>1</dim>
					<dim>-1</dim>
				</port>
			</output>
		</layer>
		<layer id="184" name="Constant_473" type="Const" version="opset1">
			<data element_type="i64" shape="1" offset="502" size="8" />
			<output>
				<port id="0" precision="I64">
					<dim>1</dim>
				</port>
			</output>
		</layer>
		<layer id="185" name="Constant_475" type="Const" version="opset1">
			<data element_type="i64" shape="1" offset="510" size="8" />
			<output>
				<port id="0" precision="I64">
					<dim>1</dim>
				</port>
			</output>
		</layer>
		<layer id="186" name="Constant_477" type="Const" version="opset1">
			<data element_type="i64" shape="1" offset="272" size="8" />
			<output>
				<port id="0" precision="I64">
					<dim>1</dim>
				</port>
			</output>
		</layer>
		<layer id="187" name="Constant_471" type="Const" version="opset1">
			<data element_type="i64" shape="1" offset="322" size="8" />
			<output>
				<port id="0" precision="I64">
					<dim>1</dim>
				</port>
			</output>
		</layer>
		<layer id="188" name="__module.model.patchifier/aten::slice/Slice_26" type="Slice" version="opset8">
			<input>
				<port id="0" precision="FP32">
					<dim>-1</dim>
					<dim>7</dim>
					<dim>-1</dim>
				</port>
				<port id="1" precision="I64">
					<dim>1</dim>
				</port>
				<port id="2" precision="I64">
					<dim>1</dim>
				</port>
				<port id="3" precision="I64">
					<dim>1</dim>
				</port>
				<port id="4" precision="I64">
					<dim>1</dim>
				</port>
			</input>
			<output>
				<port id="5" precision="FP32" names="133">
					<dim>-1</dim>
					<dim>7</dim>
					<dim>-1</dim>
				</port>
			</output>
		</layer>
		<layer id="189" name="Unsqueeze_3481" type="Unsqueeze" version="opset1">
			<input>
				<port id="0" precision="FP32">
					<dim>-1</dim>
					<dim>7</dim>
					<dim>-1</dim>
				</port>
				<port id="1" precision="I32" />
			</input>
			<output>
				<port id="2" precision="FP32">
					<dim>-1</dim>
					<dim>7</dim>
					<dim>1</dim>
					<dim>-1</dim>
				</port>
			</output>
		</layer>
		<layer id="190" name="Constant_483" type="Const" version="opset1">
			<data element_type="i64" shape="1" offset="510" size="8" />
			<output>
				<port id="0" precision="I64">
					<dim>1</dim>
				</port>
			</output>
		</layer>
		<layer id="191" name="Constant_485" type="Const" version="opset1">
			<data element_type="i64" shape="1" offset="518" size="8" />
			<output>
				<port id="0" precision="I64">
					<dim>1</dim>
				</port>
			</output>
		</layer>
		<layer id="192" name="Constant_487" type="Const" version="opset1">
			<data element_type="i64" shape="1" offset="272" size="8" />
			<output>
				<port id="0" precision="I64">
					<dim>1</dim>
				</port>
			</output>
		</layer>
		<layer id="193" name="Constant_481" type="Const" version="opset1">
			<data element_type="i64" shape="1" offset="322" size="8" />
			<output>
				<port id="0" precision="I64">
					<dim>1</dim>
				</port>
			</output>
		</layer>
		<layer id="194" name="__module.model.patchifier/aten::slice/Slice_27" type="Slice" version="opset8">
			<input>
				<port id="0" precision="FP32">
					<dim>-1</dim>
					<dim>7</dim>
					<dim>-1</dim>
				</port>
				<port id="1" precision="I64">
					<dim>1</dim>
				</port>
				<port id="2" precision="I64">
					<dim>1</dim>
				</port>
				<port id="3" precision="I64">
					<dim>1</dim>
				</port>
				<port id="4" precision="I64">
					<dim>1</dim>
				</port>
			</input>
			<output>
				<port id="5" precision="FP32" names="134">
					<dim>-1</dim>
					<dim>7</dim>
					<dim>-1</dim>
				</port>
			</output>
		</layer>
		<layer id="195" name="Unsqueeze_3482" type="Unsqueeze" version="opset1">
			<input>
				<port id="0" precision="FP32">
					<dim>-1</dim>
					<dim>7</dim>
					<dim>-1</dim>
				</port>
				<port id="1" precision="I32" />
			</input>
			<output>
				<port id="2" precision="FP32">
					<dim>-1</dim>
					<dim>7</dim>
					<dim>1</dim>
					<dim>-1</dim>
				</port>
			</output>
		</layer>
		<layer id="196" name="Constant_493" type="Const" version="opset1">
			<data element_type="i64" shape="1" offset="518" size="8" />
			<output>
				<port id="0" precision="I64">
					<dim>1</dim>
				</port>
			</output>
		</layer>
		<layer id="197" name="Constant_495" type="Const" version="opset1">
			<data element_type="i64" shape="1" offset="526" size="8" />
			<output>
				<port id="0" precision="I64">
					<dim>1</dim>
				</port>
			</output>
		</layer>
		<layer id="198" name="Constant_497" type="Const" version="opset1">
			<data element_type="i64" shape="1" offset="272" size="8" />
			<output>
				<port id="0" precision="I64">
					<dim>1</dim>
				</port>
			</output>
		</layer>
		<layer id="199" name="Constant_491" type="Const" version="opset1">
			<data element_type="i64" shape="1" offset="322" size="8" />
			<output>
				<port id="0" precision="I64">
					<dim>1</dim>
				</port>
			</output>
		</layer>
		<layer id="200" name="__module.model.patchifier/aten::slice/Slice_28" type="Slice" version="opset8">
			<input>
				<port id="0" precision="FP32">
					<dim>-1</dim>
					<dim>7</dim>
					<dim>-1</dim>
				</port>
				<port id="1" precision="I64">
					<dim>1</dim>
				</port>
				<port id="2" precision="I64">
					<dim>1</dim>
				</port>
				<port id="3" precision="I64">
					<dim>1</dim>
				</port>
				<port id="4" precision="I64">
					<dim>1</dim>
				</port>
			</input>
			<output>
				<port id="5" precision="FP32" names="135">
					<dim>-1</dim>
					<dim>7</dim>
					<dim>-1</dim>
				</port>
			</output>
		</layer>
		<layer id="201" name="Unsqueeze_3483" type="Unsqueeze" version="opset1">
			<input>
				<port id="0" precision="FP32">
					<dim>-1</dim>
					<dim>7</dim>
					<dim>-1</dim>
				</port>
				<port id="1" precision="I32" />
			</input>
			<output>
				<port id="2" precision="FP32">
					<dim>-1</dim>
					<dim>7</dim>
					<dim>1</dim>
					<dim>-1</dim>
				</port>
			</output>
		</layer>
		<layer id="202" name="Constant_503" type="Const" version="opset1">
			<data element_type="i64" shape="1" offset="526" size="8" />
			<output>
				<port id="0" precision="I64">
					<dim>1</dim>
				</port>
			</output>
		</layer>
		<layer id="203" name="Constant_505" type="Const" version="opset1">
			<data element_type="i64" shape="1" offset="534" size="8" />
			<output>
				<port id="0" precision="I64">
					<dim>1</dim>
				</port>
			</output>
		</layer>
		<layer id="204" name="Constant_507" type="Const" version="opset1">
			<data element_type="i64" shape="1" offset="272" size="8" />
			<output>
				<port id="0" precision="I64">
					<dim>1</dim>
				</port>
			</output>
		</layer>
		<layer id="205" name="Constant_501" type="Const" version="opset1">
			<data element_type="i64" shape="1" offset="322" size="8" />
			<output>
				<port id="0" precision="I64">
					<dim>1</dim>
				</port>
			</output>
		</layer>
		<layer id="206" name="__module.model.patchifier/aten::slice/Slice_29" type="Slice" version="opset8">
			<input>
				<port id="0" precision="FP32">
					<dim>-1</dim>
					<dim>7</dim>
					<dim>-1</dim>
				</port>
				<port id="1" precision="I64">
					<dim>1</dim>
				</port>
				<port id="2" precision="I64">
					<dim>1</dim>
				</port>
				<port id="3" precision="I64">
					<dim>1</dim>
				</port>
				<port id="4" precision="I64">
					<dim>1</dim>
				</port>
			</input>
			<output>
				<port id="5" precision="FP32" names="136">
					<dim>-1</dim>
					<dim>7</dim>
					<dim>-1</dim>
				</port>
			</output>
		</layer>
		<layer id="207" name="Unsqueeze_3484" type="Unsqueeze" version="opset1">
			<input>
				<port id="0" precision="FP32">
					<dim>-1</dim>
					<dim>7</dim>
					<dim>-1</dim>
				</port>
				<port id="1" precision="I32" />
			</input>
			<output>
				<port id="2" precision="FP32">
					<dim>-1</dim>
					<dim>7</dim>
					<dim>1</dim>
					<dim>-1</dim>
				</port>
			</output>
		</layer>
		<layer id="208" name="Constant_513" type="Const" version="opset1">
			<data element_type="i64" shape="1" offset="534" size="8" />
			<output>
				<port id="0" precision="I64">
					<dim>1</dim>
				</port>
			</output>
		</layer>
		<layer id="209" name="Constant_515" type="Const" version="opset1">
			<data element_type="i64" shape="1" offset="542" size="8" />
			<output>
				<port id="0" precision="I64">
					<dim>1</dim>
				</port>
			</output>
		</layer>
		<layer id="210" name="Constant_517" type="Const" version="opset1">
			<data element_type="i64" shape="1" offset="272" size="8" />
			<output>
				<port id="0" precision="I64">
					<dim>1</dim>
				</port>
			</output>
		</layer>
		<layer id="211" name="Constant_511" type="Const" version="opset1">
			<data element_type="i64" shape="1" offset="322" size="8" />
			<output>
				<port id="0" precision="I64">
					<dim>1</dim>
				</port>
			</output>
		</layer>
		<layer id="212" name="__module.model.patchifier/aten::slice/Slice_30" type="Slice" version="opset8">
			<input>
				<port id="0" precision="FP32">
					<dim>-1</dim>
					<dim>7</dim>
					<dim>-1</dim>
				</port>
				<port id="1" precision="I64">
					<dim>1</dim>
				</port>
				<port id="2" precision="I64">
					<dim>1</dim>
				</port>
				<port id="3" precision="I64">
					<dim>1</dim>
				</port>
				<port id="4" precision="I64">
					<dim>1</dim>
				</port>
			</input>
			<output>
				<port id="5" precision="FP32" names="137">
					<dim>-1</dim>
					<dim>7</dim>
					<dim>-1</dim>
				</port>
			</output>
		</layer>
		<layer id="213" name="Unsqueeze_3485" type="Unsqueeze" version="opset1">
			<input>
				<port id="0" precision="FP32">
					<dim>-1</dim>
					<dim>7</dim>
					<dim>-1</dim>
				</port>
				<port id="1" precision="I32" />
			</input>
			<output>
				<port id="2" precision="FP32">
					<dim>-1</dim>
					<dim>7</dim>
					<dim>1</dim>
					<dim>-1</dim>
				</port>
			</output>
		</layer>
		<layer id="214" name="Constant_523" type="Const" version="opset1">
			<data element_type="i64" shape="1" offset="542" size="8" />
			<output>
				<port id="0" precision="I64">
					<dim>1</dim>
				</port>
			</output>
		</layer>
		<layer id="215" name="Constant_525" type="Const" version="opset1">
			<data element_type="i64" shape="1" offset="550" size="8" />
			<output>
				<port id="0" precision="I64">
					<dim>1</dim>
				</port>
			</output>
		</layer>
		<layer id="216" name="Constant_527" type="Const" version="opset1">
			<data element_type="i64" shape="1" offset="272" size="8" />
			<output>
				<port id="0" precision="I64">
					<dim>1</dim>
				</port>
			</output>
		</layer>
		<layer id="217" name="Constant_521" type="Const" version="opset1">
			<data element_type="i64" shape="1" offset="322" size="8" />
			<output>
				<port id="0" precision="I64">
					<dim>1</dim>
				</port>
			</output>
		</layer>
		<layer id="218" name="__module.model.patchifier/aten::slice/Slice_31" type="Slice" version="opset8">
			<input>
				<port id="0" precision="FP32">
					<dim>-1</dim>
					<dim>7</dim>
					<dim>-1</dim>
				</port>
				<port id="1" precision="I64">
					<dim>1</dim>
				</port>
				<port id="2" precision="I64">
					<dim>1</dim>
				</port>
				<port id="3" precision="I64">
					<dim>1</dim>
				</port>
				<port id="4" precision="I64">
					<dim>1</dim>
				</port>
			</input>
			<output>
				<port id="5" precision="FP32" names="138">
					<dim>-1</dim>
					<dim>7</dim>
					<dim>-1</dim>
				</port>
			</output>
		</layer>
		<layer id="219" name="Unsqueeze_3486" type="Unsqueeze" version="opset1">
			<input>
				<port id="0" precision="FP32">
					<dim>-1</dim>
					<dim>7</dim>
					<dim>-1</dim>
				</port>
				<port id="1" precision="I32" />
			</input>
			<output>
				<port id="2" precision="FP32">
					<dim>-1</dim>
					<dim>7</dim>
					<dim>1</dim>
					<dim>-1</dim>
				</port>
			</output>
		</layer>
		<layer id="220" name="Constant_533" type="Const" version="opset1">
			<data element_type="i64" shape="1" offset="550" size="8" />
			<output>
				<port id="0" precision="I64">
					<dim>1</dim>
				</port>
			</output>
		</layer>
		<layer id="221" name="Constant_535" type="Const" version="opset1">
			<data element_type="i64" shape="1" offset="558" size="8" />
			<output>
				<port id="0" precision="I64">
					<dim>1</dim>
				</port>
			</output>
		</layer>
		<layer id="222" name="Constant_537" type="Const" version="opset1">
			<data element_type="i64" shape="1" offset="272" size="8" />
			<output>
				<port id="0" precision="I64">
					<dim>1</dim>
				</port>
			</output>
		</layer>
		<layer id="223" name="Constant_531" type="Const" version="opset1">
			<data element_type="i64" shape="1" offset="322" size="8" />
			<output>
				<port id="0" precision="I64">
					<dim>1</dim>
				</port>
			</output>
		</layer>
		<layer id="224" name="__module.model.patchifier/aten::slice/Slice_32" type="Slice" version="opset8">
			<input>
				<port id="0" precision="FP32">
					<dim>-1</dim>
					<dim>7</dim>
					<dim>-1</dim>
				</port>
				<port id="1" precision="I64">
					<dim>1</dim>
				</port>
				<port id="2" precision="I64">
					<dim>1</dim>
				</port>
				<port id="3" precision="I64">
					<dim>1</dim>
				</port>
				<port id="4" precision="I64">
					<dim>1</dim>
				</port>
			</input>
			<output>
				<port id="5" precision="FP32" names="139">
					<dim>-1</dim>
					<dim>7</dim>
					<dim>-1</dim>
				</port>
			</output>
		</layer>
		<layer id="225" name="Unsqueeze_3487" type="Unsqueeze" version="opset1">
			<input>
				<port id="0" precision="FP32">
					<dim>-1</dim>
					<dim>7</dim>
					<dim>-1</dim>
				</port>
				<port id="1" precision="I32" />
			</input>
			<output>
				<port id="2" precision="FP32">
					<dim>-1</dim>
					<dim>7</dim>
					<dim>1</dim>
					<dim>-1</dim>
				</port>
			</output>
		</layer>
		<layer id="226" name="Constant_543" type="Const" version="opset1">
			<data element_type="i64" shape="1" offset="558" size="8" />
			<output>
				<port id="0" precision="I64">
					<dim>1</dim>
				</port>
			</output>
		</layer>
		<layer id="227" name="Constant_545" type="Const" version="opset1">
			<data element_type="i64" shape="1" offset="566" size="8" />
			<output>
				<port id="0" precision="I64">
					<dim>1</dim>
				</port>
			</output>
		</layer>
		<layer id="228" name="Constant_547" type="Const" version="opset1">
			<data element_type="i64" shape="1" offset="272" size="8" />
			<output>
				<port id="0" precision="I64">
					<dim>1</dim>
				</port>
			</output>
		</layer>
		<layer id="229" name="Constant_541" type="Const" version="opset1">
			<data element_type="i64" shape="1" offset="322" size="8" />
			<output>
				<port id="0" precision="I64">
					<dim>1</dim>
				</port>
			</output>
		</layer>
		<layer id="230" name="__module.model.patchifier/aten::slice/Slice_33" type="Slice" version="opset8">
			<input>
				<port id="0" precision="FP32">
					<dim>-1</dim>
					<dim>7</dim>
					<dim>-1</dim>
				</port>
				<port id="1" precision="I64">
					<dim>1</dim>
				</port>
				<port id="2" precision="I64">
					<dim>1</dim>
				</port>
				<port id="3" precision="I64">
					<dim>1</dim>
				</port>
				<port id="4" precision="I64">
					<dim>1</dim>
				</port>
			</input>
			<output>
				<port id="5" precision="FP32" names="140">
					<dim>-1</dim>
					<dim>7</dim>
					<dim>-1</dim>
				</port>
			</output>
		</layer>
		<layer id="231" name="Unsqueeze_3488" type="Unsqueeze" version="opset1">
			<input>
				<port id="0" precision="FP32">
					<dim>-1</dim>
					<dim>7</dim>
					<dim>-1</dim>
				</port>
				<port id="1" precision="I32" />
			</input>
			<output>
				<port id="2" precision="FP32">
					<dim>-1</dim>
					<dim>7</dim>
					<dim>1</dim>
					<dim>-1</dim>
				</port>
			</output>
		</layer>
		<layer id="232" name="Constant_553" type="Const" version="opset1">
			<data element_type="i64" shape="1" offset="566" size="8" />
			<output>
				<port id="0" precision="I64">
					<dim>1</dim>
				</port>
			</output>
		</layer>
		<layer id="233" name="Constant_555" type="Const" version="opset1">
			<data element_type="i64" shape="1" offset="574" size="8" />
			<output>
				<port id="0" precision="I64">
					<dim>1</dim>
				</port>
			</output>
		</layer>
		<layer id="234" name="Constant_557" type="Const" version="opset1">
			<data element_type="i64" shape="1" offset="272" size="8" />
			<output>
				<port id="0" precision="I64">
					<dim>1</dim>
				</port>
			</output>
		</layer>
		<layer id="235" name="Constant_551" type="Const" version="opset1">
			<data element_type="i64" shape="1" offset="322" size="8" />
			<output>
				<port id="0" precision="I64">
					<dim>1</dim>
				</port>
			</output>
		</layer>
		<layer id="236" name="__module.model.patchifier/aten::slice/Slice_34" type="Slice" version="opset8">
			<input>
				<port id="0" precision="FP32">
					<dim>-1</dim>
					<dim>7</dim>
					<dim>-1</dim>
				</port>
				<port id="1" precision="I64">
					<dim>1</dim>
				</port>
				<port id="2" precision="I64">
					<dim>1</dim>
				</port>
				<port id="3" precision="I64">
					<dim>1</dim>
				</port>
				<port id="4" precision="I64">
					<dim>1</dim>
				</port>
			</input>
			<output>
				<port id="5" precision="FP32" names="141">
					<dim>-1</dim>
					<dim>7</dim>
					<dim>-1</dim>
				</port>
			</output>
		</layer>
		<layer id="237" name="Unsqueeze_3489" type="Unsqueeze" version="opset1">
			<input>
				<port id="0" precision="FP32">
					<dim>-1</dim>
					<dim>7</dim>
					<dim>-1</dim>
				</port>
				<port id="1" precision="I32" />
			</input>
			<output>
				<port id="2" precision="FP32">
					<dim>-1</dim>
					<dim>7</dim>
					<dim>1</dim>
					<dim>-1</dim>
				</port>
			</output>
		</layer>
		<layer id="238" name="Constant_563" type="Const" version="opset1">
			<data element_type="i64" shape="1" offset="574" size="8" />
			<output>
				<port id="0" precision="I64">
					<dim>1</dim>
				</port>
			</output>
		</layer>
		<layer id="239" name="Constant_565" type="Const" version="opset1">
			<data element_type="i64" shape="1" offset="582" size="8" />
			<output>
				<port id="0" precision="I64">
					<dim>1</dim>
				</port>
			</output>
		</layer>
		<layer id="240" name="Constant_567" type="Const" version="opset1">
			<data element_type="i64" shape="1" offset="272" size="8" />
			<output>
				<port id="0" precision="I64">
					<dim>1</dim>
				</port>
			</output>
		</layer>
		<layer id="241" name="Constant_561" type="Const" version="opset1">
			<data element_type="i64" shape="1" offset="322" size="8" />
			<output>
				<port id="0" precision="I64">
					<dim>1</dim>
				</port>
			</output>
		</layer>
		<layer id="242" name="__module.model.patchifier/aten::slice/Slice_35" type="Slice" version="opset8">
			<input>
				<port id="0" precision="FP32">
					<dim>-1</dim>
					<dim>7</dim>
					<dim>-1</dim>
				</port>
				<port id="1" precision="I64">
					<dim>1</dim>
				</port>
				<port id="2" precision="I64">
					<dim>1</dim>
				</port>
				<port id="3" precision="I64">
					<dim>1</dim>
				</port>
				<port id="4" precision="I64">
					<dim>1</dim>
				</port>
			</input>
			<output>
				<port id="5" precision="FP32" names="142">
					<dim>-1</dim>
					<dim>7</dim>
					<dim>-1</dim>
				</port>
			</output>
		</layer>
		<layer id="243" name="Unsqueeze_3490" type="Unsqueeze" version="opset1">
			<input>
				<port id="0" precision="FP32">
					<dim>-1</dim>
					<dim>7</dim>
					<dim>-1</dim>
				</port>
				<port id="1" precision="I32" />
			</input>
			<output>
				<port id="2" precision="FP32">
					<dim>-1</dim>
					<dim>7</dim>
					<dim>1</dim>
					<dim>-1</dim>
				</port>
			</output>
		</layer>
		<layer id="244" name="Constant_573" type="Const" version="opset1">
			<data element_type="i64" shape="1" offset="582" size="8" />
			<output>
				<port id="0" precision="I64">
					<dim>1</dim>
				</port>
			</output>
		</layer>
		<layer id="245" name="Constant_575" type="Const" version="opset1">
			<data element_type="i64" shape="1" offset="590" size="8" />
			<output>
				<port id="0" precision="I64">
					<dim>1</dim>
				</port>
			</output>
		</layer>
		<layer id="246" name="Constant_577" type="Const" version="opset1">
			<data element_type="i64" shape="1" offset="272" size="8" />
			<output>
				<port id="0" precision="I64">
					<dim>1</dim>
				</port>
			</output>
		</layer>
		<layer id="247" name="Constant_571" type="Const" version="opset1">
			<data element_type="i64" shape="1" offset="322" size="8" />
			<output>
				<port id="0" precision="I64">
					<dim>1</dim>
				</port>
			</output>
		</layer>
		<layer id="248" name="__module.model.patchifier/aten::slice/Slice_36" type="Slice" version="opset8">
			<input>
				<port id="0" precision="FP32">
					<dim>-1</dim>
					<dim>7</dim>
					<dim>-1</dim>
				</port>
				<port id="1" precision="I64">
					<dim>1</dim>
				</port>
				<port id="2" precision="I64">
					<dim>1</dim>
				</port>
				<port id="3" precision="I64">
					<dim>1</dim>
				</port>
				<port id="4" precision="I64">
					<dim>1</dim>
				</port>
			</input>
			<output>
				<port id="5" precision="FP32" names="143">
					<dim>-1</dim>
					<dim>7</dim>
					<dim>-1</dim>
				</port>
			</output>
		</layer>
		<layer id="249" name="Unsqueeze_3491" type="Unsqueeze" version="opset1">
			<input>
				<port id="0" precision="FP32">
					<dim>-1</dim>
					<dim>7</dim>
					<dim>-1</dim>
				</port>
				<port id="1" precision="I32" />
			</input>
			<output>
				<port id="2" precision="FP32">
					<dim>-1</dim>
					<dim>7</dim>
					<dim>1</dim>
					<dim>-1</dim>
				</port>
			</output>
		</layer>
		<layer id="250" name="Constant_583" type="Const" version="opset1">
			<data element_type="i64" shape="1" offset="590" size="8" />
			<output>
				<port id="0" precision="I64">
					<dim>1</dim>
				</port>
			</output>
		</layer>
		<layer id="251" name="Constant_585" type="Const" version="opset1">
			<data element_type="i64" shape="1" offset="598" size="8" />
			<output>
				<port id="0" precision="I64">
					<dim>1</dim>
				</port>
			</output>
		</layer>
		<layer id="252" name="Constant_587" type="Const" version="opset1">
			<data element_type="i64" shape="1" offset="272" size="8" />
			<output>
				<port id="0" precision="I64">
					<dim>1</dim>
				</port>
			</output>
		</layer>
		<layer id="253" name="Constant_581" type="Const" version="opset1">
			<data element_type="i64" shape="1" offset="322" size="8" />
			<output>
				<port id="0" precision="I64">
					<dim>1</dim>
				</port>
			</output>
		</layer>
		<layer id="254" name="__module.model.patchifier/aten::slice/Slice_37" type="Slice" version="opset8">
			<input>
				<port id="0" precision="FP32">
					<dim>-1</dim>
					<dim>7</dim>
					<dim>-1</dim>
				</port>
				<port id="1" precision="I64">
					<dim>1</dim>
				</port>
				<port id="2" precision="I64">
					<dim>1</dim>
				</port>
				<port id="3" precision="I64">
					<dim>1</dim>
				</port>
				<port id="4" precision="I64">
					<dim>1</dim>
				</port>
			</input>
			<output>
				<port id="5" precision="FP32" names="144">
					<dim>-1</dim>
					<dim>7</dim>
					<dim>-1</dim>
				</port>
			</output>
		</layer>
		<layer id="255" name="Unsqueeze_3492" type="Unsqueeze" version="opset1">
			<input>
				<port id="0" precision="FP32">
					<dim>-1</dim>
					<dim>7</dim>
					<dim>-1</dim>
				</port>
				<port id="1" precision="I32" />
			</input>
			<output>
				<port id="2" precision="FP32">
					<dim>-1</dim>
					<dim>7</dim>
					<dim>1</dim>
					<dim>-1</dim>
				</port>
			</output>
		</layer>
		<layer id="256" name="Constant_593" type="Const" version="opset1">
			<data element_type="i64" shape="1" offset="598" size="8" />
			<output>
				<port id="0" precision="I64">
					<dim>1</dim>
				</port>
			</output>
		</layer>
		<layer id="257" name="Constant_595" type="Const" version="opset1">
			<data element_type="i64" shape="1" offset="606" size="8" />
			<output>
				<port id="0" precision="I64">
					<dim>1</dim>
				</port>
			</output>
		</layer>
		<layer id="258" name="Constant_597" type="Const" version="opset1">
			<data element_type="i64" shape="1" offset="272" size="8" />
			<output>
				<port id="0" precision="I64">
					<dim>1</dim>
				</port>
			</output>
		</layer>
		<layer id="259" name="Constant_591" type="Const" version="opset1">
			<data element_type="i64" shape="1" offset="322" size="8" />
			<output>
				<port id="0" precision="I64">
					<dim>1</dim>
				</port>
			</output>
		</layer>
		<layer id="260" name="__module.model.patchifier/aten::slice/Slice_38" type="Slice" version="opset8">
			<input>
				<port id="0" precision="FP32">
					<dim>-1</dim>
					<dim>7</dim>
					<dim>-1</dim>
				</port>
				<port id="1" precision="I64">
					<dim>1</dim>
				</port>
				<port id="2" precision="I64">
					<dim>1</dim>
				</port>
				<port id="3" precision="I64">
					<dim>1</dim>
				</port>
				<port id="4" precision="I64">
					<dim>1</dim>
				</port>
			</input>
			<output>
				<port id="5" precision="FP32" names="145">
					<dim>-1</dim>
					<dim>7</dim>
					<dim>-1</dim>
				</port>
			</output>
		</layer>
		<layer id="261" name="Unsqueeze_3493" type="Unsqueeze" version="opset1">
			<input>
				<port id="0" precision="FP32">
					<dim>-1</dim>
					<dim>7</dim>
					<dim>-1</dim>
				</port>
				<port id="1" precision="I32" />
			</input>
			<output>
				<port id="2" precision="FP32">
					<dim>-1</dim>
					<dim>7</dim>
					<dim>1</dim>
					<dim>-1</dim>
				</port>
			</output>
		</layer>
		<layer id="262" name="Constant_603" type="Const" version="opset1">
			<data element_type="i64" shape="1" offset="606" size="8" />
			<output>
				<port id="0" precision="I64">
					<dim>1</dim>
				</port>
			</output>
		</layer>
		<layer id="263" name="Constant_605" type="Const" version="opset1">
			<data element_type="i64" shape="1" offset="614" size="8" />
			<output>
				<port id="0" precision="I64">
					<dim>1</dim>
				</port>
			</output>
		</layer>
		<layer id="264" name="Constant_607" type="Const" version="opset1">
			<data element_type="i64" shape="1" offset="272" size="8" />
			<output>
				<port id="0" precision="I64">
					<dim>1</dim>
				</port>
			</output>
		</layer>
		<layer id="265" name="Constant_601" type="Const" version="opset1">
			<data element_type="i64" shape="1" offset="322" size="8" />
			<output>
				<port id="0" precision="I64">
					<dim>1</dim>
				</port>
			</output>
		</layer>
		<layer id="266" name="__module.model.patchifier/aten::slice/Slice_39" type="Slice" version="opset8">
			<input>
				<port id="0" precision="FP32">
					<dim>-1</dim>
					<dim>7</dim>
					<dim>-1</dim>
				</port>
				<port id="1" precision="I64">
					<dim>1</dim>
				</port>
				<port id="2" precision="I64">
					<dim>1</dim>
				</port>
				<port id="3" precision="I64">
					<dim>1</dim>
				</port>
				<port id="4" precision="I64">
					<dim>1</dim>
				</port>
			</input>
			<output>
				<port id="5" precision="FP32" names="146">
					<dim>-1</dim>
					<dim>7</dim>
					<dim>-1</dim>
				</port>
			</output>
		</layer>
		<layer id="267" name="Unsqueeze_3494" type="Unsqueeze" version="opset1">
			<input>
				<port id="0" precision="FP32">
					<dim>-1</dim>
					<dim>7</dim>
					<dim>-1</dim>
				</port>
				<port id="1" precision="I32" />
			</input>
			<output>
				<port id="2" precision="FP32">
					<dim>-1</dim>
					<dim>7</dim>
					<dim>1</dim>
					<dim>-1</dim>
				</port>
			</output>
		</layer>
		<layer id="268" name="Constant_613" type="Const" version="opset1">
			<data element_type="i64" shape="1" offset="614" size="8" />
			<output>
				<port id="0" precision="I64">
					<dim>1</dim>
				</port>
			</output>
		</layer>
		<layer id="269" name="Constant_615" type="Const" version="opset1">
			<data element_type="i64" shape="1" offset="622" size="8" />
			<output>
				<port id="0" precision="I64">
					<dim>1</dim>
				</port>
			</output>
		</layer>
		<layer id="270" name="Constant_617" type="Const" version="opset1">
			<data element_type="i64" shape="1" offset="272" size="8" />
			<output>
				<port id="0" precision="I64">
					<dim>1</dim>
				</port>
			</output>
		</layer>
		<layer id="271" name="Constant_611" type="Const" version="opset1">
			<data element_type="i64" shape="1" offset="322" size="8" />
			<output>
				<port id="0" precision="I64">
					<dim>1</dim>
				</port>
			</output>
		</layer>
		<layer id="272" name="__module.model.patchifier/aten::slice/Slice_40" type="Slice" version="opset8">
			<input>
				<port id="0" precision="FP32">
					<dim>-1</dim>
					<dim>7</dim>
					<dim>-1</dim>
				</port>
				<port id="1" precision="I64">
					<dim>1</dim>
				</port>
				<port id="2" precision="I64">
					<dim>1</dim>
				</port>
				<port id="3" precision="I64">
					<dim>1</dim>
				</port>
				<port id="4" precision="I64">
					<dim>1</dim>
				</port>
			</input>
			<output>
				<port id="5" precision="FP32" names="147">
					<dim>-1</dim>
					<dim>7</dim>
					<dim>-1</dim>
				</port>
			</output>
		</layer>
		<layer id="273" name="Unsqueeze_3495" type="Unsqueeze" version="opset1">
			<input>
				<port id="0" precision="FP32">
					<dim>-1</dim>
					<dim>7</dim>
					<dim>-1</dim>
				</port>
				<port id="1" precision="I32" />
			</input>
			<output>
				<port id="2" precision="FP32">
					<dim>-1</dim>
					<dim>7</dim>
					<dim>1</dim>
					<dim>-1</dim>
				</port>
			</output>
		</layer>
		<layer id="274" name="Constant_623" type="Const" version="opset1">
			<data element_type="i64" shape="1" offset="622" size="8" />
			<output>
				<port id="0" precision="I64">
					<dim>1</dim>
				</port>
			</output>
		</layer>
		<layer id="275" name="Constant_625" type="Const" version="opset1">
			<data element_type="i64" shape="1" offset="630" size="8" />
			<output>
				<port id="0" precision="I64">
					<dim>1</dim>
				</port>
			</output>
		</layer>
		<layer id="276" name="Constant_627" type="Const" version="opset1">
			<data element_type="i64" shape="1" offset="272" size="8" />
			<output>
				<port id="0" precision="I64">
					<dim>1</dim>
				</port>
			</output>
		</layer>
		<layer id="277" name="Constant_621" type="Const" version="opset1">
			<data element_type="i64" shape="1" offset="322" size="8" />
			<output>
				<port id="0" precision="I64">
					<dim>1</dim>
				</port>
			</output>
		</layer>
		<layer id="278" name="__module.model.patchifier/aten::slice/Slice_41" type="Slice" version="opset8">
			<input>
				<port id="0" precision="FP32">
					<dim>-1</dim>
					<dim>7</dim>
					<dim>-1</dim>
				</port>
				<port id="1" precision="I64">
					<dim>1</dim>
				</port>
				<port id="2" precision="I64">
					<dim>1</dim>
				</port>
				<port id="3" precision="I64">
					<dim>1</dim>
				</port>
				<port id="4" precision="I64">
					<dim>1</dim>
				</port>
			</input>
			<output>
				<port id="5" precision="FP32" names="148">
					<dim>-1</dim>
					<dim>7</dim>
					<dim>-1</dim>
				</port>
			</output>
		</layer>
		<layer id="279" name="Unsqueeze_3496" type="Unsqueeze" version="opset1">
			<input>
				<port id="0" precision="FP32">
					<dim>-1</dim>
					<dim>7</dim>
					<dim>-1</dim>
				</port>
				<port id="1" precision="I32" />
			</input>
			<output>
				<port id="2" precision="FP32">
					<dim>-1</dim>
					<dim>7</dim>
					<dim>1</dim>
					<dim>-1</dim>
				</port>
			</output>
		</layer>
		<layer id="280" name="Constant_633" type="Const" version="opset1">
			<data element_type="i64" shape="1" offset="630" size="8" />
			<output>
				<port id="0" precision="I64">
					<dim>1</dim>
				</port>
			</output>
		</layer>
		<layer id="281" name="Constant_635" type="Const" version="opset1">
			<data element_type="i64" shape="1" offset="638" size="8" />
			<output>
				<port id="0" precision="I64">
					<dim>1</dim>
				</port>
			</output>
		</layer>
		<layer id="282" name="Constant_637" type="Const" version="opset1">
			<data element_type="i64" shape="1" offset="272" size="8" />
			<output>
				<port id="0" precision="I64">
					<dim>1</dim>
				</port>
			</output>
		</layer>
		<layer id="283" name="Constant_631" type="Const" version="opset1">
			<data element_type="i64" shape="1" offset="322" size="8" />
			<output>
				<port id="0" precision="I64">
					<dim>1</dim>
				</port>
			</output>
		</layer>
		<layer id="284" name="__module.model.patchifier/aten::slice/Slice_42" type="Slice" version="opset8">
			<input>
				<port id="0" precision="FP32">
					<dim>-1</dim>
					<dim>7</dim>
					<dim>-1</dim>
				</port>
				<port id="1" precision="I64">
					<dim>1</dim>
				</port>
				<port id="2" precision="I64">
					<dim>1</dim>
				</port>
				<port id="3" precision="I64">
					<dim>1</dim>
				</port>
				<port id="4" precision="I64">
					<dim>1</dim>
				</port>
			</input>
			<output>
				<port id="5" precision="FP32" names="149">
					<dim>-1</dim>
					<dim>7</dim>
					<dim>-1</dim>
				</port>
			</output>
		</layer>
		<layer id="285" name="Unsqueeze_3497" type="Unsqueeze" version="opset1">
			<input>
				<port id="0" precision="FP32">
					<dim>-1</dim>
					<dim>7</dim>
					<dim>-1</dim>
				</port>
				<port id="1" precision="I32" />
			</input>
			<output>
				<port id="2" precision="FP32">
					<dim>-1</dim>
					<dim>7</dim>
					<dim>1</dim>
					<dim>-1</dim>
				</port>
			</output>
		</layer>
		<layer id="286" name="Constant_643" type="Const" version="opset1">
			<data element_type="i64" shape="1" offset="638" size="8" />
			<output>
				<port id="0" precision="I64">
					<dim>1</dim>
				</port>
			</output>
		</layer>
		<layer id="287" name="Constant_645" type="Const" version="opset1">
			<data element_type="i64" shape="1" offset="646" size="8" />
			<output>
				<port id="0" precision="I64">
					<dim>1</dim>
				</port>
			</output>
		</layer>
		<layer id="288" name="Constant_647" type="Const" version="opset1">
			<data element_type="i64" shape="1" offset="272" size="8" />
			<output>
				<port id="0" precision="I64">
					<dim>1</dim>
				</port>
			</output>
		</layer>
		<layer id="289" name="Constant_641" type="Const" version="opset1">
			<data element_type="i64" shape="1" offset="322" size="8" />
			<output>
				<port id="0" precision="I64">
					<dim>1</dim>
				</port>
			</output>
		</layer>
		<layer id="290" name="__module.model.patchifier/aten::slice/Slice_43" type="Slice" version="opset8">
			<input>
				<port id="0" precision="FP32">
					<dim>-1</dim>
					<dim>7</dim>
					<dim>-1</dim>
				</port>
				<port id="1" precision="I64">
					<dim>1</dim>
				</port>
				<port id="2" precision="I64">
					<dim>1</dim>
				</port>
				<port id="3" precision="I64">
					<dim>1</dim>
				</port>
				<port id="4" precision="I64">
					<dim>1</dim>
				</port>
			</input>
			<output>
				<port id="5" precision="FP32" names="150">
					<dim>-1</dim>
					<dim>7</dim>
					<dim>-1</dim>
				</port>
			</output>
		</layer>
		<layer id="291" name="Unsqueeze_3498" type="Unsqueeze" version="opset1">
			<input>
				<port id="0" precision="FP32">
					<dim>-1</dim>
					<dim>7</dim>
					<dim>-1</dim>
				</port>
				<port id="1" precision="I32" />
			</input>
			<output>
				<port id="2" precision="FP32">
					<dim>-1</dim>
					<dim>7</dim>
					<dim>1</dim>
					<dim>-1</dim>
				</port>
			</output>
		</layer>
		<layer id="292" name="Constant_653" type="Const" version="opset1">
			<data element_type="i64" shape="1" offset="646" size="8" />
			<output>
				<port id="0" precision="I64">
					<dim>1</dim>
				</port>
			</output>
		</layer>
		<layer id="293" name="Constant_655" type="Const" version="opset1">
			<data element_type="i64" shape="1" offset="654" size="8" />
			<output>
				<port id="0" precision="I64">
					<dim>1</dim>
				</port>
			</output>
		</layer>
		<layer id="294" name="Constant_657" type="Const" version="opset1">
			<data element_type="i64" shape="1" offset="272" size="8" />
			<output>
				<port id="0" precision="I64">
					<dim>1</dim>
				</port>
			</output>
		</layer>
		<layer id="295" name="Constant_651" type="Const" version="opset1">
			<data element_type="i64" shape="1" offset="322" size="8" />
			<output>
				<port id="0" precision="I64">
					<dim>1</dim>
				</port>
			</output>
		</layer>
		<layer id="296" name="__module.model.patchifier/aten::slice/Slice_44" type="Slice" version="opset8">
			<input>
				<port id="0" precision="FP32">
					<dim>-1</dim>
					<dim>7</dim>
					<dim>-1</dim>
				</port>
				<port id="1" precision="I64">
					<dim>1</dim>
				</port>
				<port id="2" precision="I64">
					<dim>1</dim>
				</port>
				<port id="3" precision="I64">
					<dim>1</dim>
				</port>
				<port id="4" precision="I64">
					<dim>1</dim>
				</port>
			</input>
			<output>
				<port id="5" precision="FP32" names="151">
					<dim>-1</dim>
					<dim>7</dim>
					<dim>-1</dim>
				</port>
			</output>
		</layer>
		<layer id="297" name="Unsqueeze_3499" type="Unsqueeze" version="opset1">
			<input>
				<port id="0" precision="FP32">
					<dim>-1</dim>
					<dim>7</dim>
					<dim>-1</dim>
				</port>
				<port id="1" precision="I32" />
			</input>
			<output>
				<port id="2" precision="FP32">
					<dim>-1</dim>
					<dim>7</dim>
					<dim>1</dim>
					<dim>-1</dim>
				</port>
			</output>
		</layer>
		<layer id="298" name="__module.model.patchifier/aten::stack" type="Concat" version="opset1">
			<data axis="-2" />
			<input>
				<port id="0" precision="FP32">
					<dim>-1</dim>
					<dim>7</dim>
					<dim>1</dim>
					<dim>-1</dim>
				</port>
				<port id="1" precision="FP32">
					<dim>-1</dim>
					<dim>7</dim>
					<dim>1</dim>
					<dim>-1</dim>
				</port>
				<port id="2" precision="FP32">
					<dim>-1</dim>
					<dim>7</dim>
					<dim>1</dim>
					<dim>-1</dim>
				</port>
				<port id="3" precision="FP32">
					<dim>-1</dim>
					<dim>7</dim>
					<dim>1</dim>
					<dim>-1</dim>
				</port>
				<port id="4" precision="FP32">
					<dim>-1</dim>
					<dim>7</dim>
					<dim>1</dim>
					<dim>-1</dim>
				</port>
				<port id="5" precision="FP32">
					<dim>-1</dim>
					<dim>7</dim>
					<dim>1</dim>
					<dim>-1</dim>
				</port>
				<port id="6" precision="FP32">
					<dim>-1</dim>
					<dim>7</dim>
					<dim>1</dim>
					<dim>-1</dim>
				</port>
				<port id="7" precision="FP32">
					<dim>-1</dim>
					<dim>7</dim>
					<dim>1</dim>
					<dim>-1</dim>
				</port>
				<port id="8" precision="FP32">
					<dim>-1</dim>
					<dim>7</dim>
					<dim>1</dim>
					<dim>-1</dim>
				</port>
				<port id="9" precision="FP32">
					<dim>-1</dim>
					<dim>7</dim>
					<dim>1</dim>
					<dim>-1</dim>
				</port>
				<port id="10" precision="FP32">
					<dim>-1</dim>
					<dim>7</dim>
					<dim>1</dim>
					<dim>-1</dim>
				</port>
				<port id="11" precision="FP32">
					<dim>-1</dim>
					<dim>7</dim>
					<dim>1</dim>
					<dim>-1</dim>
				</port>
				<port id="12" precision="FP32">
					<dim>-1</dim>
					<dim>7</dim>
					<dim>1</dim>
					<dim>-1</dim>
				</port>
				<port id="13" precision="FP32">
					<dim>-1</dim>
					<dim>7</dim>
					<dim>1</dim>
					<dim>-1</dim>
				</port>
				<port id="14" precision="FP32">
					<dim>-1</dim>
					<dim>7</dim>
					<dim>1</dim>
					<dim>-1</dim>
				</port>
				<port id="15" precision="FP32">
					<dim>-1</dim>
					<dim>7</dim>
					<dim>1</dim>
					<dim>-1</dim>
				</port>
				<port id="16" precision="FP32">
					<dim>-1</dim>
					<dim>7</dim>
					<dim>1</dim>
					<dim>-1</dim>
				</port>
				<port id="17" precision="FP32">
					<dim>-1</dim>
					<dim>7</dim>
					<dim>1</dim>
					<dim>-1</dim>
				</port>
				<port id="18" precision="FP32">
					<dim>-1</dim>
					<dim>7</dim>
					<dim>1</dim>
					<dim>-1</dim>
				</port>
				<port id="19" precision="FP32">
					<dim>-1</dim>
					<dim>7</dim>
					<dim>1</dim>
					<dim>-1</dim>
				</port>
				<port id="20" precision="FP32">
					<dim>-1</dim>
					<dim>7</dim>
					<dim>1</dim>
					<dim>-1</dim>
				</port>
				<port id="21" precision="FP32">
					<dim>-1</dim>
					<dim>7</dim>
					<dim>1</dim>
					<dim>-1</dim>
				</port>
				<port id="22" precision="FP32">
					<dim>-1</dim>
					<dim>7</dim>
					<dim>1</dim>
					<dim>-1</dim>
				</port>
				<port id="23" precision="FP32">
					<dim>-1</dim>
					<dim>7</dim>
					<dim>1</dim>
					<dim>-1</dim>
				</port>
				<port id="24" precision="FP32">
					<dim>-1</dim>
					<dim>7</dim>
					<dim>1</dim>
					<dim>-1</dim>
				</port>
				<port id="25" precision="FP32">
					<dim>-1</dim>
					<dim>7</dim>
					<dim>1</dim>
					<dim>-1</dim>
				</port>
				<port id="26" precision="FP32">
					<dim>-1</dim>
					<dim>7</dim>
					<dim>1</dim>
					<dim>-1</dim>
				</port>
				<port id="27" precision="FP32">
					<dim>-1</dim>
					<dim>7</dim>
					<dim>1</dim>
					<dim>-1</dim>
				</port>
				<port id="28" precision="FP32">
					<dim>-1</dim>
					<dim>7</dim>
					<dim>1</dim>
					<dim>-1</dim>
				</port>
				<port id="29" precision="FP32">
					<dim>-1</dim>
					<dim>7</dim>
					<dim>1</dim>
					<dim>-1</dim>
				</port>
				<port id="30" precision="FP32">
					<dim>-1</dim>
					<dim>7</dim>
					<dim>1</dim>
					<dim>-1</dim>
				</port>
				<port id="31" precision="FP32">
					<dim>-1</dim>
					<dim>7</dim>
					<dim>1</dim>
					<dim>-1</dim>
				</port>
				<port id="32" precision="FP32">
					<dim>-1</dim>
					<dim>7</dim>
					<dim>1</dim>
					<dim>-1</dim>
				</port>
				<port id="33" precision="FP32">
					<dim>-1</dim>
					<dim>7</dim>
					<dim>1</dim>
					<dim>-1</dim>
				</port>
				<port id="34" precision="FP32">
					<dim>-1</dim>
					<dim>7</dim>
					<dim>1</dim>
					<dim>-1</dim>
				</port>
				<port id="35" precision="FP32">
					<dim>-1</dim>
					<dim>7</dim>
					<dim>1</dim>
					<dim>-1</dim>
				</port>
				<port id="36" precision="FP32">
					<dim>-1</dim>
					<dim>7</dim>
					<dim>1</dim>
					<dim>-1</dim>
				</port>
				<port id="37" precision="FP32">
					<dim>-1</dim>
					<dim>7</dim>
					<dim>1</dim>
					<dim>-1</dim>
				</port>
				<port id="38" precision="FP32">
					<dim>-1</dim>
					<dim>7</dim>
					<dim>1</dim>
					<dim>-1</dim>
				</port>
				<port id="39" precision="FP32">
					<dim>-1</dim>
					<dim>7</dim>
					<dim>1</dim>
					<dim>-1</dim>
				</port>
				<port id="40" precision="FP32">
					<dim>-1</dim>
					<dim>7</dim>
					<dim>1</dim>
					<dim>-1</dim>
				</port>
				<port id="41" precision="FP32">
					<dim>-1</dim>
					<dim>7</dim>
					<dim>1</dim>
					<dim>-1</dim>
				</port>
			</input>
			<output>
				<port id="42" precision="FP32" names="153,155">
					<dim>-1</dim>
					<dim>7</dim>
					<dim>42</dim>
					<dim>-1</dim>
				</port>
			</output>
		</layer>
		<layer id="299" name="self.model.encoder.embedder.input_embedding.weight_compressed" type="Const" version="opset1">
			<data element_type="f16" shape="128, 12" offset="662" size="3072" />
			<output>
				<port id="0" precision="FP16" names="self.model.encoder.embedder.input_embedding.weight">
					<dim>128</dim>
					<dim>12</dim>
				</port>
			</output>
		</layer>
		<layer id="300" name="self.model.encoder.embedder.input_embedding.weight" type="Convert" version="opset1">
			<data destination_type="f32" />
			<rt_info>
				<attribute name="decompression" version="0" />
			</rt_info>
			<input>
				<port id="0" precision="FP16">
					<dim>128</dim>
					<dim>12</dim>
				</port>
			</input>
			<output>
				<port id="1" precision="FP32">
					<dim>128</dim>
					<dim>12</dim>
				</port>
			</output>
		</layer>
		<layer id="301" name="__module.model.encoder.embedder.input_embedding/aten::linear/MatMul" type="MatMul" version="opset1">
			<data transpose_a="false" transpose_b="true" />
			<input>
				<port id="0" precision="FP32">
					<dim>-1</dim>
					<dim>7</dim>
					<dim>42</dim>
					<dim>-1</dim>
				</port>
				<port id="1" precision="FP32">
					<dim>128</dim>
					<dim>12</dim>
				</port>
			</input>
			<output>
				<port id="2" precision="FP32">
					<dim>-1</dim>
					<dim>7</dim>
					<dim>42</dim>
					<dim>128</dim>
				</port>
			</output>
		</layer>
		<layer id="302" name="Constant_9532_compressed" type="Const" version="opset1">
			<data element_type="f16" shape="1, 1, 42, 128" offset="3734" size="10752" />
			<output>
				<port id="0" precision="FP16">
					<dim>1</dim>
					<dim>1</dim>
					<dim>42</dim>
					<dim>128</dim>
				</port>
			</output>
		</layer>
		<layer id="303" name="Constant_9532" type="Convert" version="opset1">
			<data destination_type="f32" />
			<rt_info>
				<attribute name="decompression" version="0" />
			</rt_info>
			<input>
				<port id="0" precision="FP16">
					<dim>1</dim>
					<dim>1</dim>
					<dim>42</dim>
					<dim>128</dim>
				</port>
			</input>
			<output>
				<port id="1" precision="FP32">
					<dim>1</dim>
					<dim>1</dim>
					<dim>42</dim>
					<dim>128</dim>
				</port>
			</output>
		</layer>
		<layer id="304" name="__module.model.encoder.positional_encoder/aten::add/Add_1" type="Add" version="opset1">
			<data auto_broadcast="numpy" />
			<input>
				<port id="0" precision="FP32">
					<dim>-1</dim>
					<dim>7</dim>
					<dim>42</dim>
					<dim>128</dim>
				</port>
				<port id="1" precision="FP32">
					<dim>1</dim>
					<dim>1</dim>
					<dim>42</dim>
					<dim>128</dim>
				</port>
			</input>
			<output>
				<port id="2" precision="FP32" names="173,patch_input">
					<dim>-1</dim>
					<dim>7</dim>
					<dim>42</dim>
					<dim>128</dim>
				</port>
			</output>
		</layer>
		<layer id="305" name="__module.model.encoder.positional_encoder/aten::cat/Concat" type="Concat" version="opset1">
			<data axis="2" />
			<input>
				<port id="0" precision="FP32">
					<dim>-1</dim>
					<dim>7</dim>
					<dim>1</dim>
					<dim>128</dim>
				</port>
				<port id="1" precision="FP32">
					<dim>-1</dim>
					<dim>7</dim>
					<dim>42</dim>
					<dim>128</dim>
				</port>
			</input>
			<output>
				<port id="2" precision="FP32" names="181,hidden_state.1">
					<dim>-1</dim>
					<dim>7</dim>
					<dim>43</dim>
					<dim>128</dim>
				</port>
			</output>
		</layer>
		<layer id="306" name="Constant_9950" type="Const" version="opset1">
			<data element_type="i64" shape="3" offset="14486" size="24" />
			<rt_info>
				<attribute name="precise" version="0" />
			</rt_info>
			<output>
				<port id="0" precision="I64">
					<dim>3</dim>
				</port>
			</output>
		</layer>
		<layer id="307" name="__module.model.encoder.layers.0/aten::view/Reshape" type="Reshape" version="opset1">
			<data special_zero="true" />
			<input>
				<port id="0" precision="FP32">
					<dim>-1</dim>
					<dim>7</dim>
					<dim>43</dim>
					<dim>128</dim>
				</port>
				<port id="1" precision="I64">
					<dim>3</dim>
				</port>
			</input>
			<output>
				<port id="2" precision="FP32" names="195,inputs.1">
					<dim>-1</dim>
					<dim>43</dim>
					<dim>128</dim>
				</port>
			</output>
		</layer>
		<layer id="308" name="__module.model.encoder.layers.0.norm_sublayer1/aten::transpose/Constant" type="Const" version="opset1">
			<data element_type="i32" shape="3" offset="302" size="12" />
			<output>
				<port id="0" precision="I32">
					<dim>3</dim>
				</port>
			</output>
		</layer>
		<layer id="309" name="__module.model.encoder.layers.0.norm_sublayer1/aten::transpose/Transpose" type="Transpose" version="opset1">
			<input>
				<port id="0" precision="FP32">
					<dim>-1</dim>
					<dim>43</dim>
					<dim>128</dim>
				</port>
				<port id="1" precision="I32">
					<dim>3</dim>
				</port>
			</input>
			<output>
				<port id="2" precision="FP32" names="197,input.1">
					<dim>-1</dim>
					<dim>128</dim>
					<dim>43</dim>
				</port>
			</output>
		</layer>
		<layer id="310" name="Constant_9036_compressed" type="Const" version="opset1">
			<data element_type="f16" shape="1, 128, 1" offset="14510" size="256" />
			<output>
				<port id="0" precision="FP16">
					<dim>1</dim>
					<dim>128</dim>
					<dim>1</dim>
				</port>
			</output>
		</layer>
		<layer id="311" name="Constant_9036" type="Convert" version="opset1">
			<data destination_type="f32" />
			<rt_info>
				<attribute name="decompression" version="0" />
			</rt_info>
			<input>
				<port id="0" precision="FP16">
					<dim>1</dim>
					<dim>128</dim>
					<dim>1</dim>
				</port>
			</input>
			<output>
				<port id="1" precision="FP32">
					<dim>1</dim>
					<dim>128</dim>
					<dim>1</dim>
				</port>
			</output>
		</layer>
		<layer id="312" name="Multiply_9333" type="Multiply" version="opset1">
			<data auto_broadcast="numpy" />
			<input>
				<port id="0" precision="FP32">
					<dim>-1</dim>
					<dim>128</dim>
					<dim>43</dim>
				</port>
				<port id="1" precision="FP32">
					<dim>1</dim>
					<dim>128</dim>
					<dim>1</dim>
				</port>
			</input>
			<output>
				<port id="2" precision="FP32">
					<dim>-1</dim>
					<dim>128</dim>
					<dim>43</dim>
				</port>
			</output>
		</layer>
		<layer id="313" name="Constant_9338_compressed" type="Const" version="opset1">
			<data element_type="f16" shape="1, 128, 1" offset="14766" size="256" />
			<output>
				<port id="0" precision="FP16">
					<dim>1</dim>
					<dim>128</dim>
					<dim>1</dim>
				</port>
			</output>
		</layer>
		<layer id="314" name="Constant_9338" type="Convert" version="opset1">
			<data destination_type="f32" />
			<rt_info>
				<attribute name="decompression" version="0" />
			</rt_info>
			<input>
				<port id="0" precision="FP16">
					<dim>1</dim>
					<dim>128</dim>
					<dim>1</dim>
				</port>
			</input>
			<output>
				<port id="1" precision="FP32">
					<dim>1</dim>
					<dim>128</dim>
					<dim>1</dim>
				</port>
			</output>
		</layer>
		<layer id="315" name="__module.model.encoder.layers.0.norm_sublayer1.batchnorm/aten::batch_norm/BatchNormInference" type="Add" version="opset1">
			<data auto_broadcast="numpy" />
			<input>
				<port id="0" precision="FP32">
					<dim>-1</dim>
					<dim>128</dim>
					<dim>43</dim>
				</port>
				<port id="1" precision="FP32">
					<dim>1</dim>
					<dim>128</dim>
					<dim>1</dim>
				</port>
			</input>
			<output>
				<port id="2" precision="FP32" names="202,output.3">
					<dim>-1</dim>
					<dim>128</dim>
					<dim>43</dim>
				</port>
			</output>
		</layer>
		<layer id="316" name="self.model.encoder.layers.0.self_attn.q_proj.weight_compressed" type="Const" version="opset1">
			<data element_type="f16" shape="128, 128" offset="15022" size="32768" />
			<output>
				<port id="0" precision="FP16" names="self.model.encoder.layers.0.self_attn.q_proj.weight">
					<dim>128</dim>
					<dim>128</dim>
				</port>
			</output>
		</layer>
		<layer id="317" name="self.model.encoder.layers.0.self_attn.q_proj.weight" type="Convert" version="opset1">
			<data destination_type="f32" />
			<rt_info>
				<attribute name="decompression" version="0" />
			</rt_info>
			<input>
				<port id="0" precision="FP16">
					<dim>128</dim>
					<dim>128</dim>
				</port>
			</input>
			<output>
				<port id="1" precision="FP32">
					<dim>128</dim>
					<dim>128</dim>
				</port>
			</output>
		</layer>
		<layer id="318" name="__module.model.encoder.layers.0.self_attn.q_proj/aten::linear/MatMul" type="MatMul" version="opset1">
			<data transpose_a="true" transpose_b="true" />
			<input>
				<port id="0" precision="FP32">
					<dim>-1</dim>
					<dim>128</dim>
					<dim>43</dim>
				</port>
				<port id="1" precision="FP32">
					<dim>128</dim>
					<dim>128</dim>
				</port>
			</input>
			<output>
				<port id="2" precision="FP32">
					<dim>-1</dim>
					<dim>43</dim>
					<dim>128</dim>
				</port>
			</output>
		</layer>
		<layer id="319" name="Constant_9533_compressed" type="Const" version="opset1">
			<data element_type="f16" shape="1, 1, 128" offset="47790" size="256" />
			<output>
				<port id="0" precision="FP16">
					<dim>1</dim>
					<dim>1</dim>
					<dim>128</dim>
				</port>
			</output>
		</layer>
		<layer id="320" name="Constant_9533" type="Convert" version="opset1">
			<data destination_type="f32" />
			<rt_info>
				<attribute name="decompression" version="0" />
			</rt_info>
			<input>
				<port id="0" precision="FP16">
					<dim>1</dim>
					<dim>1</dim>
					<dim>128</dim>
				</port>
			</input>
			<output>
				<port id="1" precision="FP32">
					<dim>1</dim>
					<dim>1</dim>
					<dim>128</dim>
				</port>
			</output>
		</layer>
		<layer id="321" name="__module.model.encoder.layers.0.self_attn.q_proj/aten::linear/Add" type="Add" version="opset1">
			<data auto_broadcast="numpy" />
			<input>
				<port id="0" precision="FP32">
					<dim>-1</dim>
					<dim>43</dim>
					<dim>128</dim>
				</port>
				<port id="1" precision="FP32">
					<dim>1</dim>
					<dim>1</dim>
					<dim>128</dim>
				</port>
			</input>
			<output>
				<port id="2" precision="FP32" names="212">
					<dim>-1</dim>
					<dim>43</dim>
					<dim>128</dim>
				</port>
			</output>
		</layer>
		<layer id="322" name="Constant_9951" type="Const" version="opset1">
			<data element_type="i64" shape="4" offset="48046" size="32" />
			<rt_info>
				<attribute name="precise" version="0" />
			</rt_info>
			<output>
				<port id="0" precision="I64">
					<dim>4</dim>
				</port>
			</output>
		</layer>
		<layer id="323" name="__module.model.encoder.layers.0.self_attn/aten::view/Reshape" type="Reshape" version="opset1">
			<data special_zero="true" />
			<input>
				<port id="0" precision="FP32">
					<dim>-1</dim>
					<dim>43</dim>
					<dim>128</dim>
				</port>
				<port id="1" precision="I64">
					<dim>4</dim>
				</port>
			</input>
			<output>
				<port id="2" precision="FP32" names="214">
					<dim>-1</dim>
					<dim>43</dim>
					<dim>16</dim>
					<dim>8</dim>
				</port>
			</output>
		</layer>
		<layer id="324" name="__module.model.encoder.layers.0.self_attn/aten::transpose/Constant" type="Const" version="opset1">
			<data element_type="i32" shape="4" offset="48078" size="16" />
			<output>
				<port id="0" precision="I32">
					<dim>4</dim>
				</port>
			</output>
		</layer>
		<layer id="325" name="__module.model.encoder.layers.0.self_attn/aten::transpose/Transpose" type="Transpose" version="opset1">
			<input>
				<port id="0" precision="FP32">
					<dim>-1</dim>
					<dim>43</dim>
					<dim>16</dim>
					<dim>8</dim>
				</port>
				<port id="1" precision="I32">
					<dim>4</dim>
				</port>
			</input>
			<output>
				<port id="2" precision="FP32" names="215,query.1">
					<dim>-1</dim>
					<dim>16</dim>
					<dim>43</dim>
					<dim>8</dim>
				</port>
			</output>
		</layer>
		<layer id="326" name="self.model.encoder.layers.0.self_attn.k_proj.weight_compressed" type="Const" version="opset1">
			<data element_type="f16" shape="128, 128" offset="48094" size="32768" />
			<output>
				<port id="0" precision="FP16" names="self.model.encoder.layers.0.self_attn.k_proj.weight">
					<dim>128</dim>
					<dim>128</dim>
				</port>
			</output>
		</layer>
		<layer id="327" name="self.model.encoder.layers.0.self_attn.k_proj.weight" type="Convert" version="opset1">
			<data destination_type="f32" />
			<rt_info>
				<attribute name="decompression" version="0" />
			</rt_info>
			<input>
				<port id="0" precision="FP16">
					<dim>128</dim>
					<dim>128</dim>
				</port>
			</input>
			<output>
				<port id="1" precision="FP32">
					<dim>128</dim>
					<dim>128</dim>
				</port>
			</output>
		</layer>
		<layer id="328" name="__module.model.encoder.layers.0.self_attn.k_proj/aten::linear/MatMul" type="MatMul" version="opset1">
			<data transpose_a="true" transpose_b="true" />
			<input>
				<port id="0" precision="FP32">
					<dim>-1</dim>
					<dim>128</dim>
					<dim>43</dim>
				</port>
				<port id="1" precision="FP32">
					<dim>128</dim>
					<dim>128</dim>
				</port>
			</input>
			<output>
				<port id="2" precision="FP32">
					<dim>-1</dim>
					<dim>43</dim>
					<dim>128</dim>
				</port>
			</output>
		</layer>
		<layer id="329" name="Constant_9534_compressed" type="Const" version="opset1">
			<data element_type="f16" shape="1, 1, 128" offset="80862" size="256" />
			<output>
				<port id="0" precision="FP16">
					<dim>1</dim>
					<dim>1</dim>
					<dim>128</dim>
				</port>
			</output>
		</layer>
		<layer id="330" name="Constant_9534" type="Convert" version="opset1">
			<data destination_type="f32" />
			<rt_info>
				<attribute name="decompression" version="0" />
			</rt_info>
			<input>
				<port id="0" precision="FP16">
					<dim>1</dim>
					<dim>1</dim>
					<dim>128</dim>
				</port>
			</input>
			<output>
				<port id="1" precision="FP32">
					<dim>1</dim>
					<dim>1</dim>
					<dim>128</dim>
				</port>
			</output>
		</layer>
		<layer id="331" name="__module.model.encoder.layers.0.self_attn.k_proj/aten::linear/Add" type="Add" version="opset1">
			<data auto_broadcast="numpy" />
			<input>
				<port id="0" precision="FP32">
					<dim>-1</dim>
					<dim>43</dim>
					<dim>128</dim>
				</port>
				<port id="1" precision="FP32">
					<dim>1</dim>
					<dim>1</dim>
					<dim>128</dim>
				</port>
			</input>
			<output>
				<port id="2" precision="FP32" names="218">
					<dim>-1</dim>
					<dim>43</dim>
					<dim>128</dim>
				</port>
			</output>
		</layer>
		<layer id="332" name="Constant_9952" type="Const" version="opset1">
			<data element_type="i64" shape="4" offset="48046" size="32" />
			<rt_info>
				<attribute name="precise" version="0" />
			</rt_info>
			<output>
				<port id="0" precision="I64">
					<dim>4</dim>
				</port>
			</output>
		</layer>
		<layer id="333" name="__module.model.encoder.layers.0.self_attn/aten::view/Reshape_1" type="Reshape" version="opset1">
			<data special_zero="true" />
			<input>
				<port id="0" precision="FP32">
					<dim>-1</dim>
					<dim>43</dim>
					<dim>128</dim>
				</port>
				<port id="1" precision="I64">
					<dim>4</dim>
				</port>
			</input>
			<output>
				<port id="2" precision="FP32" names="220">
					<dim>-1</dim>
					<dim>43</dim>
					<dim>16</dim>
					<dim>8</dim>
				</port>
			</output>
		</layer>
		<layer id="334" name="__module.model.encoder.layers.0.self_attn/aten::transpose/Constant_1" type="Const" version="opset1">
			<data element_type="i32" shape="4" offset="48078" size="16" />
			<output>
				<port id="0" precision="I32">
					<dim>4</dim>
				</port>
			</output>
		</layer>
		<layer id="335" name="__module.model.encoder.layers.0.self_attn/aten::transpose/Transpose_1" type="Transpose" version="opset1">
			<input>
				<port id="0" precision="FP32">
					<dim>-1</dim>
					<dim>43</dim>
					<dim>16</dim>
					<dim>8</dim>
				</port>
				<port id="1" precision="I32">
					<dim>4</dim>
				</port>
			</input>
			<output>
				<port id="2" precision="FP32" names="221,key.1">
					<dim>-1</dim>
					<dim>16</dim>
					<dim>43</dim>
					<dim>8</dim>
				</port>
			</output>
		</layer>
		<layer id="336" name="self.model.encoder.layers.0.self_attn.v_proj.weight_compressed" type="Const" version="opset1">
			<data element_type="f16" shape="128, 128" offset="81118" size="32768" />
			<output>
				<port id="0" precision="FP16" names="self.model.encoder.layers.0.self_attn.v_proj.weight">
					<dim>128</dim>
					<dim>128</dim>
				</port>
			</output>
		</layer>
		<layer id="337" name="self.model.encoder.layers.0.self_attn.v_proj.weight" type="Convert" version="opset1">
			<data destination_type="f32" />
			<rt_info>
				<attribute name="decompression" version="0" />
			</rt_info>
			<input>
				<port id="0" precision="FP16">
					<dim>128</dim>
					<dim>128</dim>
				</port>
			</input>
			<output>
				<port id="1" precision="FP32">
					<dim>128</dim>
					<dim>128</dim>
				</port>
			</output>
		</layer>
		<layer id="338" name="__module.model.encoder.layers.0.self_attn.v_proj/aten::linear/MatMul" type="MatMul" version="opset1">
			<data transpose_a="true" transpose_b="true" />
			<input>
				<port id="0" precision="FP32">
					<dim>-1</dim>
					<dim>128</dim>
					<dim>43</dim>
				</port>
				<port id="1" precision="FP32">
					<dim>128</dim>
					<dim>128</dim>
				</port>
			</input>
			<output>
				<port id="2" precision="FP32">
					<dim>-1</dim>
					<dim>43</dim>
					<dim>128</dim>
				</port>
			</output>
		</layer>
		<layer id="339" name="Constant_9535_compressed" type="Const" version="opset1">
			<data element_type="f16" shape="1, 1, 128" offset="113886" size="256" />
			<output>
				<port id="0" precision="FP16">
					<dim>1</dim>
					<dim>1</dim>
					<dim>128</dim>
				</port>
			</output>
		</layer>
		<layer id="340" name="Constant_9535" type="Convert" version="opset1">
			<data destination_type="f32" />
			<rt_info>
				<attribute name="decompression" version="0" />
			</rt_info>
			<input>
				<port id="0" precision="FP16">
					<dim>1</dim>
					<dim>1</dim>
					<dim>128</dim>
				</port>
			</input>
			<output>
				<port id="1" precision="FP32">
					<dim>1</dim>
					<dim>1</dim>
					<dim>128</dim>
				</port>
			</output>
		</layer>
		<layer id="341" name="__module.model.encoder.layers.0.self_attn.v_proj/aten::linear/Add" type="Add" version="opset1">
			<data auto_broadcast="numpy" />
			<input>
				<port id="0" precision="FP32">
					<dim>-1</dim>
					<dim>43</dim>
					<dim>128</dim>
				</port>
				<port id="1" precision="FP32">
					<dim>1</dim>
					<dim>1</dim>
					<dim>128</dim>
				</port>
			</input>
			<output>
				<port id="2" precision="FP32" names="224">
					<dim>-1</dim>
					<dim>43</dim>
					<dim>128</dim>
				</port>
			</output>
		</layer>
		<layer id="342" name="Constant_9953" type="Const" version="opset1">
			<data element_type="i64" shape="4" offset="48046" size="32" />
			<rt_info>
				<attribute name="precise" version="0" />
			</rt_info>
			<output>
				<port id="0" precision="I64">
					<dim>4</dim>
				</port>
			</output>
		</layer>
		<layer id="343" name="__module.model.encoder.layers.0.self_attn/aten::view/Reshape_2" type="Reshape" version="opset1">
			<data special_zero="true" />
			<input>
				<port id="0" precision="FP32">
					<dim>-1</dim>
					<dim>43</dim>
					<dim>128</dim>
				</port>
				<port id="1" precision="I64">
					<dim>4</dim>
				</port>
			</input>
			<output>
				<port id="2" precision="FP32" names="226">
					<dim>-1</dim>
					<dim>43</dim>
					<dim>16</dim>
					<dim>8</dim>
				</port>
			</output>
		</layer>
		<layer id="344" name="__module.model.encoder.layers.0.self_attn/aten::transpose/Constant_3" type="Const" version="opset1">
			<data element_type="i32" shape="4" offset="48078" size="16" />
			<output>
				<port id="0" precision="I32">
					<dim>4</dim>
				</port>
			</output>
		</layer>
		<layer id="345" name="__module.model.encoder.layers.0.self_attn/aten::transpose/Transpose_3" type="Transpose" version="opset1">
			<input>
				<port id="0" precision="FP32">
					<dim>-1</dim>
					<dim>43</dim>
					<dim>16</dim>
					<dim>8</dim>
				</port>
				<port id="1" precision="I32">
					<dim>4</dim>
				</port>
			</input>
			<output>
				<port id="2" precision="FP32" names="227,value.1">
					<dim>-1</dim>
					<dim>16</dim>
					<dim>43</dim>
					<dim>8</dim>
				</port>
			</output>
		</layer>
		<layer id="346" name="Constant_8620_compressed" type="Const" version="opset1">
			<data element_type="f16" shape="" offset="114142" size="2" />
			<output>
				<port id="0" precision="FP16" />
			</output>
		</layer>
		<layer id="347" name="Constant_8620" type="Convert" version="opset1">
			<data destination_type="f32" />
			<rt_info>
				<attribute name="decompression" version="0" />
			</rt_info>
			<input>
				<port id="0" precision="FP16" />
			</input>
			<output>
				<port id="1" precision="FP32" />
			</output>
		</layer>
		<layer id="348" name="Constant_7_compressed" type="Const" version="opset1">
			<data element_type="f16" shape="" offset="114144" size="2" />
			<output>
				<port id="0" precision="FP16" names="15" />
			</output>
		</layer>
		<layer id="349" name="Constant_7" type="Convert" version="opset1">
			<data destination_type="f32" />
			<rt_info>
				<attribute name="decompression" version="0" />
			</rt_info>
			<input>
				<port id="0" precision="FP16" />
			</input>
			<output>
				<port id="1" precision="FP32" />
			</output>
		</layer>
		<layer id="350" name="__module.model.encoder.layers.0.self_attn/aten::matmul/MatMul_1" type="ScaledDotProductAttention" version="opset13">
			<data causal="false" />
			<input>
				<port id="0" precision="FP32">
					<dim>-1</dim>
					<dim>16</dim>
					<dim>43</dim>
					<dim>8</dim>
				</port>
				<port id="1" precision="FP32">
					<dim>-1</dim>
					<dim>16</dim>
					<dim>43</dim>
					<dim>8</dim>
				</port>
				<port id="2" precision="FP32">
					<dim>-1</dim>
					<dim>16</dim>
					<dim>43</dim>
					<dim>8</dim>
				</port>
				<port id="3" precision="FP32" />
				<port id="4" precision="FP32" />
			</input>
			<output>
				<port id="5" precision="FP32" names="233,attn_output.1">
					<dim>-1</dim>
					<dim>16</dim>
					<dim>43</dim>
					<dim>8</dim>
				</port>
			</output>
		</layer>
		<layer id="351" name="__module.model.encoder.layers.0.self_attn/aten::transpose/Constant_4" type="Const" version="opset1">
			<data element_type="i32" shape="4" offset="48078" size="16" />
			<output>
				<port id="0" precision="I32">
					<dim>4</dim>
				</port>
			</output>
		</layer>
		<layer id="352" name="__module.model.encoder.layers.0.self_attn/aten::transpose/Transpose_4" type="Transpose" version="opset1">
			<input>
				<port id="0" precision="FP32">
					<dim>-1</dim>
					<dim>16</dim>
					<dim>43</dim>
					<dim>8</dim>
				</port>
				<port id="1" precision="I32">
					<dim>4</dim>
				</port>
			</input>
			<output>
				<port id="2" precision="FP32" names="234">
					<dim>-1</dim>
					<dim>43</dim>
					<dim>16</dim>
					<dim>8</dim>
				</port>
			</output>
		</layer>
		<layer id="353" name="Constant_9954" type="Const" version="opset1">
			<data element_type="i64" shape="3" offset="114146" size="24" />
			<rt_info>
				<attribute name="precise" version="0" />
			</rt_info>
			<output>
				<port id="0" precision="I64">
					<dim>3</dim>
				</port>
			</output>
		</layer>
		<layer id="354" name="__module.model.encoder.layers.0.self_attn/aten::reshape/Reshape" type="Reshape" version="opset1">
			<data special_zero="true" />
			<input>
				<port id="0" precision="FP32">
					<dim>-1</dim>
					<dim>43</dim>
					<dim>16</dim>
					<dim>8</dim>
				</port>
				<port id="1" precision="I64">
					<dim>3</dim>
				</port>
			</input>
			<output>
				<port id="2" precision="FP32" names="237">
					<dim>-1</dim>
					<dim>43</dim>
					<dim>128</dim>
				</port>
			</output>
		</layer>
		<layer id="355" name="self.model.encoder.layers.0.self_attn.out_proj.weight_compressed" type="Const" version="opset1">
			<data element_type="f16" shape="128, 128" offset="114170" size="32768" />
			<output>
				<port id="0" precision="FP16" names="self.model.encoder.layers.0.self_attn.out_proj.weight">
					<dim>128</dim>
					<dim>128</dim>
				</port>
			</output>
		</layer>
		<layer id="356" name="self.model.encoder.layers.0.self_attn.out_proj.weight" type="Convert" version="opset1">
			<data destination_type="f32" />
			<rt_info>
				<attribute name="decompression" version="0" />
			</rt_info>
			<input>
				<port id="0" precision="FP16">
					<dim>128</dim>
					<dim>128</dim>
				</port>
			</input>
			<output>
				<port id="1" precision="FP32">
					<dim>128</dim>
					<dim>128</dim>
				</port>
			</output>
		</layer>
		<layer id="357" name="__module.model.encoder.layers.0.self_attn.out_proj/aten::linear/MatMul" type="MatMul" version="opset1">
			<data transpose_a="false" transpose_b="true" />
			<input>
				<port id="0" precision="FP32">
					<dim>-1</dim>
					<dim>43</dim>
					<dim>128</dim>
				</port>
				<port id="1" precision="FP32">
					<dim>128</dim>
					<dim>128</dim>
				</port>
			</input>
			<output>
				<port id="2" precision="FP32">
					<dim>-1</dim>
					<dim>43</dim>
					<dim>128</dim>
				</port>
			</output>
		</layer>
		<layer id="358" name="Constant_9536_compressed" type="Const" version="opset1">
			<data element_type="f16" shape="1, 1, 128" offset="146938" size="256" />
			<output>
				<port id="0" precision="FP16">
					<dim>1</dim>
					<dim>1</dim>
					<dim>128</dim>
				</port>
			</output>
		</layer>
		<layer id="359" name="Constant_9536" type="Convert" version="opset1">
			<data destination_type="f32" />
			<rt_info>
				<attribute name="decompression" version="0" />
			</rt_info>
			<input>
				<port id="0" precision="FP16">
					<dim>1</dim>
					<dim>1</dim>
					<dim>128</dim>
				</port>
			</input>
			<output>
				<port id="1" precision="FP32">
					<dim>1</dim>
					<dim>1</dim>
					<dim>128</dim>
				</port>
			</output>
		</layer>
		<layer id="360" name="__module.model.encoder.layers.0.self_attn.out_proj/aten::linear/Add" type="Add" version="opset1">
			<data auto_broadcast="numpy" />
			<input>
				<port id="0" precision="FP32">
					<dim>-1</dim>
					<dim>43</dim>
					<dim>128</dim>
				</port>
				<port id="1" precision="FP32">
					<dim>1</dim>
					<dim>1</dim>
					<dim>128</dim>
				</port>
			</input>
			<output>
				<port id="2" precision="FP32" names="241,attn_output.5">
					<dim>-1</dim>
					<dim>43</dim>
					<dim>128</dim>
				</port>
			</output>
		</layer>
		<layer id="361" name="__module.model.encoder.layers.0/aten::add/Add" type="Add" version="opset1">
			<data auto_broadcast="numpy" />
			<input>
				<port id="0" precision="FP32">
					<dim>-1</dim>
					<dim>43</dim>
					<dim>128</dim>
				</port>
				<port id="1" precision="FP32">
					<dim>-1</dim>
					<dim>43</dim>
					<dim>128</dim>
				</port>
			</input>
			<output>
				<port id="2" precision="FP32" names="242,248,hidden_state.3,inputs.3">
					<dim>-1</dim>
					<dim>43</dim>
					<dim>128</dim>
				</port>
			</output>
		</layer>
		<layer id="362" name="__module.model.encoder.layers.0.norm_sublayer3/aten::transpose/Constant" type="Const" version="opset1">
			<data element_type="i32" shape="3" offset="302" size="12" />
			<output>
				<port id="0" precision="I32">
					<dim>3</dim>
				</port>
			</output>
		</layer>
		<layer id="363" name="__module.model.encoder.layers.0.norm_sublayer3/aten::transpose/Transpose" type="Transpose" version="opset1">
			<input>
				<port id="0" precision="FP32">
					<dim>-1</dim>
					<dim>43</dim>
					<dim>128</dim>
				</port>
				<port id="1" precision="I32">
					<dim>3</dim>
				</port>
			</input>
			<output>
				<port id="2" precision="FP32" names="250,input.9">
					<dim>-1</dim>
					<dim>128</dim>
					<dim>43</dim>
				</port>
			</output>
		</layer>
		<layer id="364" name="Constant_9094_compressed" type="Const" version="opset1">
			<data element_type="f16" shape="1, 128, 1" offset="147194" size="256" />
			<output>
				<port id="0" precision="FP16">
					<dim>1</dim>
					<dim>128</dim>
					<dim>1</dim>
				</port>
			</output>
		</layer>
		<layer id="365" name="Constant_9094" type="Convert" version="opset1">
			<data destination_type="f32" />
			<rt_info>
				<attribute name="decompression" version="0" />
			</rt_info>
			<input>
				<port id="0" precision="FP16">
					<dim>1</dim>
					<dim>128</dim>
					<dim>1</dim>
				</port>
			</input>
			<output>
				<port id="1" precision="FP32">
					<dim>1</dim>
					<dim>128</dim>
					<dim>1</dim>
				</port>
			</output>
		</layer>
		<layer id="366" name="Multiply_9340" type="Multiply" version="opset1">
			<data auto_broadcast="numpy" />
			<input>
				<port id="0" precision="FP32">
					<dim>-1</dim>
					<dim>128</dim>
					<dim>43</dim>
				</port>
				<port id="1" precision="FP32">
					<dim>1</dim>
					<dim>128</dim>
					<dim>1</dim>
				</port>
			</input>
			<output>
				<port id="2" precision="FP32">
					<dim>-1</dim>
					<dim>128</dim>
					<dim>43</dim>
				</port>
			</output>
		</layer>
		<layer id="367" name="Constant_9345_compressed" type="Const" version="opset1">
			<data element_type="f16" shape="1, 128, 1" offset="147450" size="256" />
			<output>
				<port id="0" precision="FP16">
					<dim>1</dim>
					<dim>128</dim>
					<dim>1</dim>
				</port>
			</output>
		</layer>
		<layer id="368" name="Constant_9345" type="Convert" version="opset1">
			<data destination_type="f32" />
			<rt_info>
				<attribute name="decompression" version="0" />
			</rt_info>
			<input>
				<port id="0" precision="FP16">
					<dim>1</dim>
					<dim>128</dim>
					<dim>1</dim>
				</port>
			</input>
			<output>
				<port id="1" precision="FP32">
					<dim>1</dim>
					<dim>128</dim>
					<dim>1</dim>
				</port>
			</output>
		</layer>
		<layer id="369" name="__module.model.encoder.layers.0.norm_sublayer3.batchnorm/aten::batch_norm/BatchNormInference" type="Add" version="opset1">
			<data auto_broadcast="numpy" />
			<input>
				<port id="0" precision="FP32">
					<dim>-1</dim>
					<dim>128</dim>
					<dim>43</dim>
				</port>
				<port id="1" precision="FP32">
					<dim>1</dim>
					<dim>128</dim>
					<dim>1</dim>
				</port>
			</input>
			<output>
				<port id="2" precision="FP32" names="255,output.5">
					<dim>-1</dim>
					<dim>128</dim>
					<dim>43</dim>
				</port>
			</output>
		</layer>
		<layer id="370" name="self.model.encoder.layers.0.ff.0.weight_compressed" type="Const" version="opset1">
			<data element_type="f16" shape="512, 128" offset="147706" size="131072" />
			<output>
				<port id="0" precision="FP16" names="self.model.encoder.layers.0.ff.0.weight">
					<dim>512</dim>
					<dim>128</dim>
				</port>
			</output>
		</layer>
		<layer id="371" name="self.model.encoder.layers.0.ff.0.weight" type="Convert" version="opset1">
			<data destination_type="f32" />
			<rt_info>
				<attribute name="decompression" version="0" />
			</rt_info>
			<input>
				<port id="0" precision="FP16">
					<dim>512</dim>
					<dim>128</dim>
				</port>
			</input>
			<output>
				<port id="1" precision="FP32">
					<dim>512</dim>
					<dim>128</dim>
				</port>
			</output>
		</layer>
		<layer id="372" name="__module.model.encoder.layers.0.ff.0/aten::linear/MatMul" type="MatMul" version="opset1">
			<data transpose_a="true" transpose_b="true" />
			<input>
				<port id="0" precision="FP32">
					<dim>-1</dim>
					<dim>128</dim>
					<dim>43</dim>
				</port>
				<port id="1" precision="FP32">
					<dim>512</dim>
					<dim>128</dim>
				</port>
			</input>
			<output>
				<port id="2" precision="FP32">
					<dim>-1</dim>
					<dim>43</dim>
					<dim>512</dim>
				</port>
			</output>
		</layer>
		<layer id="373" name="Constant_9537_compressed" type="Const" version="opset1">
			<data element_type="f16" shape="1, 1, 512" offset="278778" size="1024" />
			<output>
				<port id="0" precision="FP16">
					<dim>1</dim>
					<dim>1</dim>
					<dim>512</dim>
				</port>
			</output>
		</layer>
		<layer id="374" name="Constant_9537" type="Convert" version="opset1">
			<data destination_type="f32" />
			<rt_info>
				<attribute name="decompression" version="0" />
			</rt_info>
			<input>
				<port id="0" precision="FP16">
					<dim>1</dim>
					<dim>1</dim>
					<dim>512</dim>
				</port>
			</input>
			<output>
				<port id="1" precision="FP32">
					<dim>1</dim>
					<dim>1</dim>
					<dim>512</dim>
				</port>
			</output>
		</layer>
		<layer id="375" name="__module.model.encoder.layers.0.ff.0/aten::linear/Add" type="Add" version="opset1">
			<data auto_broadcast="numpy" />
			<input>
				<port id="0" precision="FP32">
					<dim>-1</dim>
					<dim>43</dim>
					<dim>512</dim>
				</port>
				<port id="1" precision="FP32">
					<dim>1</dim>
					<dim>1</dim>
					<dim>512</dim>
				</port>
			</input>
			<output>
				<port id="2" precision="FP32" names="261,input.13">
					<dim>-1</dim>
					<dim>43</dim>
					<dim>512</dim>
				</port>
			</output>
		</layer>
		<layer id="376" name="__module.model.encoder.layers.0.ff.1/aten::gelu/Gelu" type="Gelu" version="opset7">
			<data approximation_mode="ERF" />
			<input>
				<port id="0" precision="FP32">
					<dim>-1</dim>
					<dim>43</dim>
					<dim>512</dim>
				</port>
			</input>
			<output>
				<port id="1" precision="FP32" names="262,input.15">
					<dim>-1</dim>
					<dim>43</dim>
					<dim>512</dim>
				</port>
			</output>
		</layer>
		<layer id="377" name="self.model.encoder.layers.0.ff.3.weight_compressed" type="Const" version="opset1">
			<data element_type="f16" shape="128, 512" offset="279802" size="131072" />
			<output>
				<port id="0" precision="FP16" names="self.model.encoder.layers.0.ff.3.weight">
					<dim>128</dim>
					<dim>512</dim>
				</port>
			</output>
		</layer>
		<layer id="378" name="self.model.encoder.layers.0.ff.3.weight" type="Convert" version="opset1">
			<data destination_type="f32" />
			<rt_info>
				<attribute name="decompression" version="0" />
			</rt_info>
			<input>
				<port id="0" precision="FP16">
					<dim>128</dim>
					<dim>512</dim>
				</port>
			</input>
			<output>
				<port id="1" precision="FP32">
					<dim>128</dim>
					<dim>512</dim>
				</port>
			</output>
		</layer>
		<layer id="379" name="__module.model.encoder.layers.0.ff.3/aten::linear/MatMul" type="MatMul" version="opset1">
			<data transpose_a="false" transpose_b="true" />
			<input>
				<port id="0" precision="FP32">
					<dim>-1</dim>
					<dim>43</dim>
					<dim>512</dim>
				</port>
				<port id="1" precision="FP32">
					<dim>128</dim>
					<dim>512</dim>
				</port>
			</input>
			<output>
				<port id="2" precision="FP32">
					<dim>-1</dim>
					<dim>43</dim>
					<dim>128</dim>
				</port>
			</output>
		</layer>
		<layer id="380" name="Constant_9538_compressed" type="Const" version="opset1">
			<data element_type="f16" shape="1, 1, 128" offset="410874" size="256" />
			<output>
				<port id="0" precision="FP16">
					<dim>1</dim>
					<dim>1</dim>
					<dim>128</dim>
				</port>
			</output>
		</layer>
		<layer id="381" name="Constant_9538" type="Convert" version="opset1">
			<data destination_type="f32" />
			<rt_info>
				<attribute name="decompression" version="0" />
			</rt_info>
			<input>
				<port id="0" precision="FP16">
					<dim>1</dim>
					<dim>1</dim>
					<dim>128</dim>
				</port>
			</input>
			<output>
				<port id="1" precision="FP32">
					<dim>1</dim>
					<dim>1</dim>
					<dim>128</dim>
				</port>
			</output>
		</layer>
		<layer id="382" name="__module.model.encoder.layers.0.ff.3/aten::linear/Add" type="Add" version="opset1">
			<data auto_broadcast="numpy" />
			<input>
				<port id="0" precision="FP32">
					<dim>-1</dim>
					<dim>43</dim>
					<dim>128</dim>
				</port>
				<port id="1" precision="FP32">
					<dim>1</dim>
					<dim>1</dim>
					<dim>128</dim>
				</port>
			</input>
			<output>
				<port id="2" precision="FP32" names="265">
					<dim>-1</dim>
					<dim>43</dim>
					<dim>128</dim>
				</port>
			</output>
		</layer>
		<layer id="383" name="__module.model.encoder.layers.0/aten::add/Add_1" type="Add" version="opset1">
			<data auto_broadcast="numpy" />
			<input>
				<port id="0" precision="FP32">
					<dim>-1</dim>
					<dim>43</dim>
					<dim>128</dim>
				</port>
				<port id="1" precision="FP32">
					<dim>-1</dim>
					<dim>43</dim>
					<dim>128</dim>
				</port>
			</input>
			<output>
				<port id="2" precision="FP32" names="266,hidden_state.7">
					<dim>-1</dim>
					<dim>43</dim>
					<dim>128</dim>
				</port>
			</output>
		</layer>
		<layer id="384" name="Constant_10071" type="Const" version="opset1">
			<data element_type="i64" shape="3" offset="14486" size="24" />
			<rt_info>
				<attribute name="precise" version="0" />
			</rt_info>
			<output>
				<port id="0" precision="I64">
					<dim>3</dim>
				</port>
			</output>
		</layer>
		<layer id="385" name="__module.model.encoder.layers.1/aten::view/Reshape" type="Reshape" version="opset1">
			<data special_zero="false" />
			<input>
				<port id="0" precision="FP32">
					<dim>-1</dim>
					<dim>43</dim>
					<dim>128</dim>
				</port>
				<port id="1" precision="I64">
					<dim>3</dim>
				</port>
			</input>
			<output>
				<port id="2" precision="FP32" names="282,inputs.5">
					<dim>-1</dim>
					<dim>43</dim>
					<dim>128</dim>
				</port>
			</output>
		</layer>
		<layer id="386" name="__module.model.encoder.layers.1.norm_sublayer1/aten::transpose/Constant" type="Const" version="opset1">
			<data element_type="i32" shape="3" offset="302" size="12" />
			<output>
				<port id="0" precision="I32">
					<dim>3</dim>
				</port>
			</output>
		</layer>
		<layer id="387" name="__module.model.encoder.layers.1.norm_sublayer1/aten::transpose/Transpose" type="Transpose" version="opset1">
			<input>
				<port id="0" precision="FP32">
					<dim>-1</dim>
					<dim>43</dim>
					<dim>128</dim>
				</port>
				<port id="1" precision="I32">
					<dim>3</dim>
				</port>
			</input>
			<output>
				<port id="2" precision="FP32" names="284,input.17">
					<dim>-1</dim>
					<dim>128</dim>
					<dim>43</dim>
				</port>
			</output>
		</layer>
		<layer id="388" name="Constant_9152_compressed" type="Const" version="opset1">
			<data element_type="f16" shape="1, 128, 1" offset="411130" size="256" />
			<output>
				<port id="0" precision="FP16">
					<dim>1</dim>
					<dim>128</dim>
					<dim>1</dim>
				</port>
			</output>
		</layer>
		<layer id="389" name="Constant_9152" type="Convert" version="opset1">
			<data destination_type="f32" />
			<rt_info>
				<attribute name="decompression" version="0" />
			</rt_info>
			<input>
				<port id="0" precision="FP16">
					<dim>1</dim>
					<dim>128</dim>
					<dim>1</dim>
				</port>
			</input>
			<output>
				<port id="1" precision="FP32">
					<dim>1</dim>
					<dim>128</dim>
					<dim>1</dim>
				</port>
			</output>
		</layer>
		<layer id="390" name="Multiply_9347" type="Multiply" version="opset1">
			<data auto_broadcast="numpy" />
			<input>
				<port id="0" precision="FP32">
					<dim>-1</dim>
					<dim>128</dim>
					<dim>43</dim>
				</port>
				<port id="1" precision="FP32">
					<dim>1</dim>
					<dim>128</dim>
					<dim>1</dim>
				</port>
			</input>
			<output>
				<port id="2" precision="FP32">
					<dim>-1</dim>
					<dim>128</dim>
					<dim>43</dim>
				</port>
			</output>
		</layer>
		<layer id="391" name="Constant_9352_compressed" type="Const" version="opset1">
			<data element_type="f16" shape="1, 128, 1" offset="411386" size="256" />
			<output>
				<port id="0" precision="FP16">
					<dim>1</dim>
					<dim>128</dim>
					<dim>1</dim>
				</port>
			</output>
		</layer>
		<layer id="392" name="Constant_9352" type="Convert" version="opset1">
			<data destination_type="f32" />
			<rt_info>
				<attribute name="decompression" version="0" />
			</rt_info>
			<input>
				<port id="0" precision="FP16">
					<dim>1</dim>
					<dim>128</dim>
					<dim>1</dim>
				</port>
			</input>
			<output>
				<port id="1" precision="FP32">
					<dim>1</dim>
					<dim>128</dim>
					<dim>1</dim>
				</port>
			</output>
		</layer>
		<layer id="393" name="__module.model.encoder.layers.1.norm_sublayer1.batchnorm/aten::batch_norm/BatchNormInference" type="Add" version="opset1">
			<data auto_broadcast="numpy" />
			<input>
				<port id="0" precision="FP32">
					<dim>-1</dim>
					<dim>128</dim>
					<dim>43</dim>
				</port>
				<port id="1" precision="FP32">
					<dim>1</dim>
					<dim>128</dim>
					<dim>1</dim>
				</port>
			</input>
			<output>
				<port id="2" precision="FP32" names="289,output.7">
					<dim>-1</dim>
					<dim>128</dim>
					<dim>43</dim>
				</port>
			</output>
		</layer>
		<layer id="394" name="self.model.encoder.layers.1.self_attn.q_proj.weight_compressed" type="Const" version="opset1">
			<data element_type="f16" shape="128, 128" offset="411642" size="32768" />
			<output>
				<port id="0" precision="FP16" names="self.model.encoder.layers.1.self_attn.q_proj.weight">
					<dim>128</dim>
					<dim>128</dim>
				</port>
			</output>
		</layer>
		<layer id="395" name="self.model.encoder.layers.1.self_attn.q_proj.weight" type="Convert" version="opset1">
			<data destination_type="f32" />
			<rt_info>
				<attribute name="decompression" version="0" />
			</rt_info>
			<input>
				<port id="0" precision="FP16">
					<dim>128</dim>
					<dim>128</dim>
				</port>
			</input>
			<output>
				<port id="1" precision="FP32">
					<dim>128</dim>
					<dim>128</dim>
				</port>
			</output>
		</layer>
		<layer id="396" name="__module.model.encoder.layers.1.self_attn.q_proj/aten::linear/MatMul" type="MatMul" version="opset1">
			<data transpose_a="true" transpose_b="true" />
			<input>
				<port id="0" precision="FP32">
					<dim>-1</dim>
					<dim>128</dim>
					<dim>43</dim>
				</port>
				<port id="1" precision="FP32">
					<dim>128</dim>
					<dim>128</dim>
				</port>
			</input>
			<output>
				<port id="2" precision="FP32">
					<dim>-1</dim>
					<dim>43</dim>
					<dim>128</dim>
				</port>
			</output>
		</layer>
		<layer id="397" name="Constant_9539_compressed" type="Const" version="opset1">
			<data element_type="f16" shape="1, 1, 128" offset="444410" size="256" />
			<output>
				<port id="0" precision="FP16">
					<dim>1</dim>
					<dim>1</dim>
					<dim>128</dim>
				</port>
			</output>
		</layer>
		<layer id="398" name="Constant_9539" type="Convert" version="opset1">
			<data destination_type="f32" />
			<rt_info>
				<attribute name="decompression" version="0" />
			</rt_info>
			<input>
				<port id="0" precision="FP16">
					<dim>1</dim>
					<dim>1</dim>
					<dim>128</dim>
				</port>
			</input>
			<output>
				<port id="1" precision="FP32">
					<dim>1</dim>
					<dim>1</dim>
					<dim>128</dim>
				</port>
			</output>
		</layer>
		<layer id="399" name="__module.model.encoder.layers.1.self_attn.q_proj/aten::linear/Add" type="Add" version="opset1">
			<data auto_broadcast="numpy" />
			<input>
				<port id="0" precision="FP32">
					<dim>-1</dim>
					<dim>43</dim>
					<dim>128</dim>
				</port>
				<port id="1" precision="FP32">
					<dim>1</dim>
					<dim>1</dim>
					<dim>128</dim>
				</port>
			</input>
			<output>
				<port id="2" precision="FP32" names="299">
					<dim>-1</dim>
					<dim>43</dim>
					<dim>128</dim>
				</port>
			</output>
		</layer>
		<layer id="400" name="Constant_9957" type="Const" version="opset1">
			<data element_type="i64" shape="4" offset="48046" size="32" />
			<rt_info>
				<attribute name="precise" version="0" />
			</rt_info>
			<output>
				<port id="0" precision="I64">
					<dim>4</dim>
				</port>
			</output>
		</layer>
		<layer id="401" name="__module.model.encoder.layers.1.self_attn/aten::view/Reshape" type="Reshape" version="opset1">
			<data special_zero="true" />
			<input>
				<port id="0" precision="FP32">
					<dim>-1</dim>
					<dim>43</dim>
					<dim>128</dim>
				</port>
				<port id="1" precision="I64">
					<dim>4</dim>
				</port>
			</input>
			<output>
				<port id="2" precision="FP32" names="301">
					<dim>-1</dim>
					<dim>43</dim>
					<dim>16</dim>
					<dim>8</dim>
				</port>
			</output>
		</layer>
		<layer id="402" name="__module.model.encoder.layers.1.self_attn/aten::transpose/Constant" type="Const" version="opset1">
			<data element_type="i32" shape="4" offset="48078" size="16" />
			<output>
				<port id="0" precision="I32">
					<dim>4</dim>
				</port>
			</output>
…
				<port id="3" precision="FP32" names="456,457,458,input.49,input.51">
					<dim>-1</dim>
					<dim>7</dim>
					<dim>128</dim>
				</port>
			</output>
		</layer>
		<layer id="541" name="self.head.projection.weight_compressed" type="Const" version="opset1">
			<data element_type="f16" shape="96, 128" offset="1204250" size="24576" />
			<output>
				<port id="0" precision="FP16" names="self.head.projection.weight">
					<dim>96</dim>
					<dim>128</dim>
				</port>
			</output>
		</layer>
		<layer id="542" name="self.head.projection.weight" type="Convert" version="opset1">
			<data destination_type="f32" />
			<rt_info>
				<attribute name="decompression" version="0" />
			</rt_info>
			<input>
				<port id="0" precision="FP16">
					<dim>96</dim>
					<dim>128</dim>
				</port>
			</input>
			<output>
				<port id="1" precision="FP32">
					<dim>96</dim>
					<dim>128</dim>
				</port>
			</output>
		</layer>
		<layer id="543" name="__module.head.projection/aten::linear/MatMul" type="MatMul" version="opset1">
			<data transpose_a="false" transpose_b="true" />
			<input>
				<port id="0" precision="FP32">
					<dim>-1</dim>
					<dim>7</dim>
					<dim>128</dim>
				</port>
				<port id="1" precision="FP32">
					<dim>96</dim>
					<dim>128</dim>
				</port>
			</input>
			<output>
				<port id="2" precision="FP32">
					<dim>-1</dim>
					<dim>7</dim>
					<dim>96</dim>
				</port>
			</output>
		</layer>
		<layer id="544" name="Constant_9551_compressed" type="Const" version="opset1">
			<data element_type="f16" shape="1, 1, 96" offset="1228826" size="192" />
			<output>
				<port id="0" precision="FP16">
					<dim>1</dim>
					<dim>1</dim>
					<dim>96</dim>
				</port>
			</output>
		</layer>
		<layer id="545" name="Constant_9551" type="Convert" version="opset1">
			<data destination_type="f32" />
			<rt_info>
				<attribute name="decompression" version="0" />
			</rt_info>
			<input>
				<port id="0" precision="FP16">
					<dim>1</dim>
					<dim>1</dim>
					<dim>96</dim>
				</port>
			</input>
			<output>
				<port id="1" precision="FP32">
					<dim>1</dim>
					<dim>1</dim>
					<dim>96</dim>
				</port>
			</output>
		</layer>
		<layer id="546" name="__module.head.projection/aten::linear/Add" type="Add" version="opset1">
			<data auto_broadcast="numpy" />
			<input>
				<port id="0" precision="FP32">
					<dim>-1</dim>
					<dim>7</dim>
					<dim>96</dim>
				</port>
				<port id="1" precision="FP32">
					<dim>1</dim>
					<dim>1</dim>
					<dim>96</dim>
				</port>
			</input>
			<output>
				<port id="2" precision="FP32" names="462,output">
					<dim>-1</dim>
					<dim>7</dim>
					<dim>96</dim>
				</port>
			</output>
		</layer>
		<layer id="547" name="__module.head/aten::transpose/Constant" type="Const" version="opset1">
			<data element_type="i32" shape="3" offset="302" size="12" />
			<output>
				<port id="0" precision="I32">
					<dim>3</dim>
				</port>
			</output>
		</layer>
		<layer id="548" name="__module.head/aten::transpose/Transpose" type="Transpose" version="opset1">
			<input>
				<port id="0" precision="FP32">
					<dim>-1</dim>
					<dim>7</dim>
					<dim>96</dim>
				</port>
				<port id="1" precision="I32">
					<dim>3</dim>
				</port>
			</input>
			<output>
				<port id="2" precision="FP32" names="463,y_hat">
					<dim>-1</dim>
					<dim>96</dim>
					<dim>7</dim>
				</port>
			</output>
		</layer>
		<layer id="549" name="aten::mul/Multiply" type="Multiply" version="opset1">
			<data auto_broadcast="numpy" />
			<input>
				<port id="0" precision="FP32">
					<dim>-1</dim>
					<dim>96</dim>
					<dim>7</dim>
				</port>
				<port id="1" precision="FP32">
					<dim>-1</dim>
					<dim>1</dim>
					<dim>7</dim>
				</port>
			</input>
			<output>
				<port id="2" precision="FP32" names="9">
					<dim>-1</dim>
					<dim>96</dim>
					<dim>7</dim>
				</port>
			</output>
		</layer>
		<layer id="550" name="aten::add/Add" type="Add" version="opset1">
			<data auto_broadcast="numpy" />
			<input>
				<port id="0" precision="FP32">
					<dim>-1</dim>
					<dim>96</dim>
					<dim>7</dim>
				</port>
				<port id="1" precision="FP32">
					<dim>-1</dim>
					<dim>1</dim>
					<dim>7</dim>
				</port>
			</input>
			<output>
				<port id="2" precision="FP32" names="prediction_outputs">
					<dim>-1</dim>
					<dim>96</dim>
					<dim>7</dim>
				</port>
			</output>
		</layer>
		<layer id="551" name="Result_3501" type="Result" version="opset1" output_names="prediction_outputs">
			<input>
				<port id="0" precision="FP32">
					<dim>-1</dim>
					<dim>96</dim>
					<dim>7</dim>
				</port>
			</input>
		</layer>
	</layers>
	<edges>
		<edge from-layer="0" from-port="0" to-layer="3" to-port="0" />
		<edge from-layer="0" from-port="0" to-layer="25" to-port="0" />
		<edge from-layer="0" from-port="0" to-layer="16" to-port="0" />
		<edge from-layer="0" from-port="0" to-layer="14" to-port="0" />
		<edge from-layer="1" from-port="0" to-layer="2" to-port="0" />
		<edge from-layer="2" from-port="1" to-layer="11" to-port="0" />
		<edge from-layer="3" from-port="1" to-layer="6" to-port="0" />
		<edge from-layer="4" from-port="0" to-layer="6" to-port="1" />
		<edge from-layer="5" from-port="0" to-layer="6" to-port="2" />
		<edge from-layer="6" from-port="3" to-layer="10" to-port="0" />
		<edge from-layer="7" from-port="0" to-layer="10" to-port="1" />
		<edge from-layer="8" from-port="0" to-layer="10" to-port="2" />
		<edge from-layer="9" from-port="0" to-layer="10" to-port="3" />
		<edge from-layer="10" from-port="4" to-layer="11" to-port="1" />
		<edge from-layer="11" from-port="2" to-layer="305" to-port="0" />
		<edge from-layer="12" from-port="0" to-layer="13" to-port="0" />
		<edge from-layer="13" from-port="1" to-layer="15" to-port="0" />
		<edge from-layer="14" from-port="1" to-layer="15" to-port="1" />
		<edge from-layer="15" from-port="2" to-layer="20" to-port="0" />
		<edge from-layer="15" from-port="2" to-layer="16" to-port="1" />
		<edge from-layer="15" from-port="2" to-layer="26" to-port="1" />
		<edge from-layer="16" from-port="2" to-layer="18" to-port="0" />
		<edge from-layer="17" from-port="0" to-layer="18" to-port="1" />
		<edge from-layer="18" from-port="2" to-layer="24" to-port="0" />
		<edge from-layer="19" from-port="0" to-layer="20" to-port="1" />
		<edge from-layer="20" from-port="2" to-layer="23" to-port="0" />
		<edge from-layer="21" from-port="0" to-layer="22" to-port="0" />
		<edge from-layer="22" from-port="1" to-layer="23" to-port="1" />
		<edge from-layer="23" from-port="2" to-layer="24" to-port="1" />
		<edge from-layer="23" from-port="2" to-layer="32" to-port="1" />
		<edge from-layer="24" from-port="2" to-layer="25" to-port="1" />
		<edge from-layer="24" from-port="2" to-layer="550" to-port="1" />
		<edge from-layer="25" from-port="2" to-layer="26" to-port="0" />
		<edge from-layer="25" from-port="2" to-layer="37" to-port="0" />
		<edge from-layer="26" from-port="2" to-layer="29" to-port="0" />
		<edge from-layer="27" from-port="0" to-layer="28" to-port="0" />
		<edge from-layer="28" from-port="1" to-layer="29" to-port="1" />
		<edge from-layer="29" from-port="2" to-layer="31" to-port="0" />
		<edge from-layer="30" from-port="0" to-layer="31" to-port="1" />
		<edge from-layer="31" from-port="2" to-layer="32" to-port="0" />
		<edge from-layer="32" from-port="2" to-layer="35" to-port="0" />
		<edge from-layer="33" from-port="0" to-layer="34" to-port="0" />
		<edge from-layer="34" from-port="1" to-layer="35" to-port="1" />
		<edge from-layer="35" from-port="2" to-layer="36" to-port="0" />
		<edge from-layer="36" from-port="1" to-layer="37" to-port="1" />
		<edge from-layer="36" from-port="1" to-layer="549" to-port="1" />
		<edge from-layer="37" from-port="2" to-layer="42" to-port="0" />
		<edge from-layer="38" from-port="0" to-layer="42" to-port="1" />
		<edge from-layer="39" from-port="0" to-layer="42" to-port="2" />
		<edge from-layer="40" from-port="0" to-layer="42" to-port="3" />
		<edge from-layer="41" from-port="0" to-layer="42" to-port="4" />
		<edge from-layer="42" from-port="5" to-layer="44" to-port="0" />
		<edge from-layer="43" from-port="0" to-layer="44" to-port="1" />
		<edge from-layer="44" from-port="2" to-layer="200" to-port="0" />
		<edge from-layer="44" from-port="2" to-layer="266" to-port="0" />
		<edge from-layer="44" from-port="2" to-layer="152" to-port="0" />
		<edge from-layer="44" from-port="2" to-layer="284" to-port="0" />
		<edge from-layer="44" from-port="2" to-layer="80" to-port="0" />
		<edge from-layer="44" from-port="2" to-layer="278" to-port="0" />
		<edge from-layer="44" from-port="2" to-layer="146" to-port="0" />
		<edge from-layer="44" from-port="2" to-layer="206" to-port="0" />
		<edge from-layer="44" from-port="2" to-layer="110" to-port="0" />
		<edge from-layer="44" from-port="2" to-layer="272" to-port="0" />
		<edge from-layer="44" from-port="2" to-layer="74" to-port="0" />
		<edge from-layer="44" from-port="2" to-layer="86" to-port="0" />
		<edge from-layer="44" from-port="2" to-layer="290" to-port="0" />
		<edge from-layer="44" from-port="2" to-layer="170" to-port="0" />
		<edge from-layer="44" from-port="2" to-layer="158" to-port="0" />
		<edge from-layer="44" from-port="2" to-layer="194" to-port="0" />
		<edge from-layer="44" from-port="2" to-layer="92" to-port="0" />
		<edge from-layer="44" from-port="2" to-layer="296" to-port="0" />
		<edge from-layer="44" from-port="2" to-layer="104" to-port="0" />
		<edge from-layer="44" from-port="2" to-layer="188" to-port="0" />
		<edge from-layer="44" from-port="2" to-layer="164" to-port="0" />
		<edge from-layer="44" from-port="2" to-layer="182" to-port="0" />
		<edge from-layer="44" from-port="2" to-layer="98" to-port="0" />
		<edge from-layer="44" from-port="2" to-layer="176" to-port="0" />
		<edge from-layer="44" from-port="2" to-layer="218" to-port="0" />
		<edge from-layer="44" from-port="2" to-layer="230" to-port="0" />
		<edge from-layer="44" from-port="2" to-layer="56" to-port="0" />
		<edge from-layer="44" from-port="2" to-layer="224" to-port="0" />
		<edge from-layer="44" from-port="2" to-layer="122" to-port="0" />
		<edge from-layer="44" from-port="2" to-layer="236" to-port="0" />
		<edge from-layer="44" from-port="2" to-layer="242" to-port="0" />
		<edge from-layer="44" from-port="2" to-layer="62" to-port="0" />
		<edge from-layer="44" from-port="2" to-layer="116" to-port="0" />
		<edge from-layer="44" from-port="2" to-layer="128" to-port="0" />
		<edge from-layer="44" from-port="2" to-layer="248" to-port="0" />
		<edge from-layer="44" from-port="2" to-layer="254" to-port="0" />
		<edge from-layer="44" from-port="2" to-layer="68" to-port="0" />
		<edge from-layer="44" from-port="2" to-layer="134" to-port="0" />
		<edge from-layer="44" from-port="2" to-layer="260" to-port="0" />
		<edge from-layer="44" from-port="2" to-layer="212" to-port="0" />
		<edge from-layer="44" from-port="2" to-layer="49" to-port="0" />
		<edge from-layer="44" from-port="2" to-layer="140" to-port="0" />
		<edge from-layer="45" from-port="0" to-layer="49" to-port="1" />
		<edge from-layer="46" from-port="0" to-layer="49" to-port="2" />
		<edge from-layer="47" from-port="0" to-layer="49" to-port="3" />
		<edge from-layer="48" from-port="0" to-layer="49" to-port="4" />
		<edge from-layer="49" from-port="5" to-layer="51" to-port="0" />
		<edge from-layer="50" from-port="0" to-layer="117" to-port="1" />
		<edge from-layer="50" from-port="0" to-layer="165" to-port="1" />
		<edge from-layer="50" from-port="0" to-layer="159" to-port="1" />
		<edge from-layer="50" from-port="0" to-layer="225" to-port="1" />
		<edge from-layer="50" from-port="0" to-layer="123" to-port="1" />
		<edge from-layer="50" from-port="0" to-layer="153" to-port="1" />
		<edge from-layer="50" from-port="0" to-layer="147" to-port="1" />
		<edge from-layer="50" from-port="0" to-layer="129" to-port="1" />
		<edge from-layer="50" from-port="0" to-layer="141" to-port="1" />
		<edge from-layer="50" from-port="0" to-layer="135" to-port="1" />
		<edge from-layer="50" from-port="0" to-layer="273" to-port="1" />
		<edge from-layer="50" from-port="0" to-layer="219" to-port="1" />
		<edge from-layer="50" from-port="0" to-layer="231" to-port="1" />
		<edge from-layer="50" from-port="0" to-layer="237" to-port="1" />
		<edge from-layer="50" from-port="0" to-layer="243" to-port="1" />
		<edge from-layer="50" from-port="0" to-layer="213" to-port="1" />
		<edge from-layer="50" from-port="0" to-layer="249" to-port="1" />
		<edge from-layer="50" from-port="0" to-layer="255" to-port="1" />
		<edge from-layer="50" from-port="0" to-layer="207" to-port="1" />
		<edge from-layer="50" from-port="0" to-layer="261" to-port="1" />
		<edge from-layer="50" from-port="0" to-layer="267" to-port="1" />
		<edge from-layer="50" from-port="0" to-layer="171" to-port="1" />
		<edge from-layer="50" from-port="0" to-layer="201" to-port="1" />
		<edge from-layer="50" from-port="0" to-layer="279" to-port="1" />
		<edge from-layer="50" from-port="0" to-layer="285" to-port="1" />
		<edge from-layer="50" from-port="0" to-layer="195" to-port="1" />
		<edge from-layer="50" from-port="0" to-layer="291" to-port="1" />
		<edge from-layer="50" from-port="0" to-layer="189" to-port="1" />
		<edge from-layer="50" from-port="0" to-layer="297" to-port="1" />
		<edge from-layer="50" from-port="0" to-layer="183" to-port="1" />
		<edge from-layer="50" from-port="0" to-layer="177" to-port="1" />
		<edge from-layer="50" from-port="0" to-layer="87" to-port="1" />
		<edge from-layer="50" from-port="0" to-layer="105" to-port="1" />
		<edge from-layer="50" from-port="0" to-layer="93" to-port="1" />
		<edge from-layer="50" from-port="0" to-layer="51" to-port="1" />
		<edge from-layer="50" from-port="0" to-layer="57" to-port="1" />
		<edge from-layer="50" from-port="0" to-layer="63" to-port="1" />
		<edge from-layer="50" from-port="0" to-layer="111" to-port="1" />
		<edge from-layer="50" from-port="0" to-layer="81" to-port="1" />
		<edge from-layer="50" from-port="0" to-layer="99" to-port="1" />
		<edge from-layer="50" from-port="0" to-layer="69" to-port="1" />
		<edge from-layer="50" from-port="0" to-layer="75" to-port="1" />
		<edge from-layer="51" from-port="2" to-layer="298" to-port="0" />
		<edge from-layer="52" from-port="0" to-layer="56" to-port="1" />
		<edge from-layer="53" from-port="0" to-layer="56" to-port="2" />
		<edge from-layer="54" from-port="0" to-layer="56" to-port="3" />
		<edge from-layer="55" from-port="0" to-layer="56" to-port="4" />
		<edge from-layer="56" from-port="5" to-layer="57" to-port="0" />
		<edge from-layer="57" from-port="2" to-layer="298" to-port="1" />
		<edge from-layer="58" from-port="0" to-layer="62" to-port="1" />
		<edge from-layer="59" from-port="0" to-layer="62" to-port="2" />
		<edge from-layer="60" from-port="0" to-layer="62" to-port="3" />
		<edge from-layer="61" from-port="0" to-layer="62" to-port="4" />
		<edge from-layer="62" from-port="5" to-layer="63" to-port="0" />
		<edge from-layer="63" from-port="2" to-layer="298" to-port="2" />
		<edge from-layer="64" from-port="0" to-layer="68" to-port="1" />
		<edge from-layer="65" from-port="0" to-layer="68" to-port="2" />
		<edge from-layer="66" from-port="0" to-layer="68" to-port="3" />
		<edge from-layer="67" from-port="0" to-layer="68" to-port="4" />
		<edge from-layer="68" from-port="5" to-layer="69" to-port="0" />
		<edge from-layer="69" from-port="2" to-layer="298" to-port="3" />
		<edge from-layer="70" from-port="0" to-layer="74" to-port="1" />
		<edge from-layer="71" from-port="0" to-layer="74" to-port="2" />
		<edge from-layer="72" from-port="0" to-layer="74" to-port="3" />
		<edge from-layer="73" from-port="0" to-layer="74" to-port="4" />
		<edge from-layer="74" from-port="5" to-layer="75" to-port="0" />
		<edge from-layer="75" from-port="2" to-layer="298" to-port="4" />
		<edge from-layer="76" from-port="0" to-layer="80" to-port="1" />
		<edge from-layer="77" from-port="0" to-layer="80" to-port="2" />
		<edge from-layer="78" from-port="0" to-layer="80" to-port="3" />
		<edge from-layer="79" from-port="0" to-layer="80" to-port="4" />
		<edge from-layer="80" from-port="5" to-layer="81" to-port="0" />
		<edge from-layer="81" from-port="2" to-layer="298" to-port="5" />
		<edge from-layer="82" from-port="0" to-layer="86" to-port="1" />
		<edge from-layer="83" from-port="0" to-layer="86" to-port="2" />
		<edge from-layer="84" from-port="0" to-layer="86" to-port="3" />
		<edge from-layer="85" from-port="0" to-layer="86" to-port="4" />
		<edge from-layer="86" from-port="5" to-layer="87" to-port="0" />
		<edge from-layer="87" from-port="2" to-layer="298" to-port="6" />
		<edge from-layer="88" from-port="0" to-layer="92" to-port="1" />
		<edge from-layer="89" from-port="0" to-layer="92" to-port="2" />
		<edge from-layer="90" from-port="0" to-layer="92" to-port="3" />
		<edge from-layer="91" from-port="0" to-layer="92" to-port="4" />
		<edge from-layer="92" from-port="5" to-layer="93" to-port="0" />
		<edge from-layer="93" from-port="2" to-layer="298" to-port="7" />
		<edge from-layer="94" from-port="0" to-layer="98" to-port="1" />
		<edge from-layer="95" from-port="0" to-layer="98" to-port="2" />
		<edge from-layer="96" from-port="0" to-layer="98" to-port="3" />
		<edge from-layer="97" from-port="0" to-layer="98" to-port="4" />
		<edge from-layer="98" from-port="5" to-layer="99" to-port="0" />
		<edge from-layer="99" from-port="2" to-layer="298" to-port="8" />
		<edge from-layer="100" from-port="0" to-layer="104" to-port="1" />
		<edge from-layer="101" from-port="0" to-layer="104" to-port="2" />
		<edge from-layer="102" from-port="0" to-layer="104" to-port="3" />
		<edge from-layer="103" from-port="0" to-layer="104" to-port="4" />
		<edge from-layer="104" from-port="5" to-layer="105" to-port="0" />
		<edge from-layer="105" from-port="2" to-layer="298" to-port="9" />
		<edge from-layer="106" from-port="0" to-layer="110" to-port="1" />
		<edge from-layer="107" from-port="0" to-layer="110" to-port="2" />
		<edge from-layer="108" from-port="0" to-layer="110" to-port="3" />
		<edge from-layer="109" from-port="0" to-layer="110" to-port="4" />
		<edge from-layer="110" from-port="5" to-layer="111" to-port="0" />
		<edge from-layer="111" from-port="2" to-layer="298" to-port="10" />
		<edge from-layer="112" from-port="0" to-layer="116" to-port="1" />
		<edge from-layer="113" from-port="0" to-layer="116" to-port="2" />
		<edge from-layer="114" from-port="0" to-layer="116" to-port="3" />
		<edge from-layer="115" from-port="0" to-layer="116" to-port="4" />
		<edge from-layer="116" from-port="5" to-layer="117" to-port="0" />
		<edge from-layer="117" from-port="2" to-layer="298" to-port="11" />
		<edge from-layer="118" from-port="0" to-layer="122" to-port="1" />
		<edge from-layer="119" from-port="0" to-layer="122" to-port="2" />
		<edge from-layer="120" from-port="0" to-layer="122" to-port="3" />
		<edge from-layer="121" from-port="0" to-layer="122" to-port="4" />
		<edge from-layer="122" from-port="5" to-layer="123" to-port="0" />
		<edge from-layer="123" from-port="2" to-layer="298" to-port="12" />
		<edge from-layer="124" from-port="0" to-layer="128" to-port="1" />
		<edge from-layer="125" from-port="0" to-layer="128" to-port="2" />
		<edge from-layer="126" from-port="0" to-layer="128" to-port="3" />
		<edge from-layer="127" from-port="0" to-layer="128" to-port="4" />
		<edge from-layer="128" from-port="5" to-layer="129" to-port="0" />
		<edge from-layer="129" from-port="2" to-layer="298" to-port="13" />
		<edge from-layer="130" from-port="0" to-layer="134" to-port="1" />
		<edge from-layer="131" from-port="0" to-layer="134" to-port="2" />
		<edge from-layer="132" from-port="0" to-layer="134" to-port="3" />
		<edge from-layer="133" from-port="0" to-layer="134" to-port="4" />
		<edge from-layer="134" from-port="5" to-layer="135" to-port="0" />
		<edge from-layer="135" from-port="2" to-layer="298" to-port="14" />
		<edge from-layer="136" from-port="0" to-layer="140" to-port="1" />
		<edge from-layer="137" from-port="0" to-layer="140" to-port="2" />
		<edge from-layer="138" from-port="0" to-layer="140" to-port="3" />
		<edge from-layer="139" from-port="0" to-layer="140" to-port="4" />
		<edge from-layer="140" from-port="5" to-layer="141" to-port="0" />
		<edge from-layer="141" from-port="2" to-layer="298" to-port="15" />
		<edge from-layer="142" from-port="0" to-layer="146" to-port="1" />
		<edge from-layer="143" from-port="0" to-layer="146" to-port="2" />
		<edge from-layer="144" from-port="0" to-layer="146" to-port="3" />
		<edge from-layer="145" from-port="0" to-layer="146" to-port="4" />
		<edge from-layer="146" from-port="5" to-layer="147" to-port="0" />
		<edge from-layer="147" from-port="2" to-layer="298" to-port="16" />
		<edge from-layer="148" from-port="0" to-layer="152" to-port="1" />
		<edge from-layer="149" from-port="0" to-layer="152" to-port="2" />
		<edge from-layer="150" from-port="0" to-layer="152" to-port="3" />
		<edge from-layer="151" from-port="0" to-layer="152" to-port="4" />
		<edge from-layer="152" from-port="5" to-layer="153" to-port="0" />
		<edge from-layer="153" from-port="2" to-layer="298" to-port="17" />
		<edge from-layer="154" from-port="0" to-layer="158" to-port="1" />
		<edge from-layer="155" from-port="0" to-layer="158" to-port="2" />
		<edge from-layer="156" from-port="0" to-layer="158" to-port="3" />
		<edge from-layer="157" from-port="0" to-layer="158" to-port="4" />
		<edge from-layer="158" from-port="5" to-layer="159" to-port="0" />
		<edge from-layer="159" from-port="2" to-layer="298" to-port="18" />
		<edge from-layer="160" from-port="0" to-layer="164" to-port="1" />
		<edge from-layer="161" from-port="0" to-layer="164" to-port="2" />
		<edge from-layer="162" from-port="0" to-layer="164" to-port="3" />
		<edge from-layer="163" from-port="0" to-layer="164" to-port="4" />
		<edge from-layer="164" from-port="5" to-layer="165" to-port="0" />
		<edge from-layer="165" from-port="2" to-layer="298" to-port="19" />
		<edge from-layer="166" from-port="0" to-layer="170" to-port="1" />
		<edge from-layer="167" from-port="0" to-layer="170" to-port="2" />
		<edge from-layer="168" from-port="0" to-layer="170" to-port="3" />
		<edge from-layer="169" from-port="0" to-layer="170" to-port="4" />
		<edge from-layer="170" from-port="5" to-layer="171" to-port="0" />
		<edge from-layer="171" from-port="2" to-layer="298" to-port="20" />
		<edge from-layer="172" from-port="0" to-layer="176" to-port="1" />
		<edge from-layer="173" from-port="0" to-layer="176" to-port="2" />
		<edge from-layer="174" from-port="0" to-layer="176" to-port="3" />
		<edge from-layer="175" from-port="0" to-layer="176" to-port="4" />
		<edge from-layer="176" from-port="5" to-layer="177" to-port="0" />
		<edge from-layer="177" from-port="2" to-layer="298" to-port="21" />
		<edge from-layer="178" from-port="0" to-layer="182" to-port="1" />
		<edge from-layer="179" from-port="0" to-layer="182" to-port="2" />
		<edge from-layer="180" from-port="0" to-layer="182" to-port="3" />
		<edge from-layer="181" from-port="0" to-layer="182" to-port="4" />
		<edge from-layer="182" from-port="5" to-layer="183" to-port="0" />
		<edge from-layer="183" from-port="2" to-layer="298" to-port="22" />
		<edge from-layer="184" from-port="0" to-layer="188" to-port="1" />
		<edge from-layer="185" from-port="0" to-layer="188" to-port="2" />
		<edge from-layer="186" from-port="0" to-layer="188" to-port="3" />
		<edge from-layer="187" from-port="0" to-layer="188" to-port="4" />
		<edge from-layer="188" from-port="5" to-layer="189" to-port="0" />
		<edge from-layer="189" from-port="2" to-layer="298" to-port="23" />
		<edge from-layer="190" from-port="0" to-layer="194" to-port="1" />
		<edge from-layer="191" from-port="0" to-layer="194" to-port="2" />
		<edge from-layer="192" from-port="0" to-layer="194" to-port="3" />
		<edge from-layer="193" from-port="0" to-layer="194" to-port="4" />
		<edge from-layer="194" from-port="5" to-layer="195" to-port="0" />
		<edge from-layer="195" from-port="2" to-layer="298" to-port="24" />
		<edge from-layer="196" from-port="0" to-layer="200" to-port="1" />
		<edge from-layer="197" from-port="0" to-layer="200" to-port="2" />
		<edge from-layer="198" from-port="0" to-layer="200" to-port="3" />
		<edge from-layer="199" from-port="0" to-layer="200" to-port="4" />
		<edge from-layer="200" from-port="5" to-layer="201" to-port="0" />
		<edge from-layer="201" from-port="2" to-layer="298" to-port="25" />
		<edge from-layer="202" from-port="0" to-layer="206" to-port="1" />
		<edge from-layer="203" from-port="0" to-layer="206" to-port="2" />
		<edge from-layer="204" from-port="0" to-layer="206" to-port="3" />
		<edge from-layer="205" from-port="0" to-layer="206" to-port="4" />
		<edge from-layer="206" from-port="5" to-layer="207" to-port="0" />
		<edge from-layer="207" from-port="2" to-layer="298" to-port="26" />
		<edge from-layer="208" from-port="0" to-layer="212" to-port="1" />
		<edge from-layer="209" from-port="0" to-layer="212" to-port="2" />
		<edge from-layer="210" from-port="0" to-layer="212" to-port="3" />
		<edge from-layer="211" from-port="0" to-layer="212" to-port="4" />
		<edge from-layer="212" from-port="5" to-layer="213" to-port="0" />
		<edge from-layer="213" from-port="2" to-layer="298" to-port="27" />
		<edge from-layer="214" from-port="0" to-layer="218" to-port="1" />
		<edge from-layer="215" from-port="0" to-layer="218" to-port="2" />
		<edge from-layer="216" from-port="0" to-layer="218" to-port="3" />
		<edge from-layer="217" from-port="0" to-layer="218" to-port="4" />
		<edge from-layer="218" from-port="5" to-layer="219" to-port="0" />
		<edge from-layer="219" from-port="2" to-layer="298" to-port="28" />
		<edge from-layer="220" from-port="0" to-layer="224" to-port="1" />
		<edge from-layer="221" from-port="0" to-layer="224" to-port="2" />
		<edge from-layer="222" from-port="0" to-layer="224" to-port="3" />
		<edge from-layer="223" from-port="0" to-layer="224" to-port="4" />
		<edge from-layer="224" from-port="5" to-layer="225" to-port="0" />
		<edge from-layer="225" from-port="2" to-layer="298" to-port="29" />
		<edge from-layer="226" from-port="0" to-layer="230" to-port="1" />
		<edge from-layer="227" from-port="0" to-layer="230" to-port="2" />
		<edge from-layer="228" from-port="0" to-layer="230" to-port="3" />
		<edge from-layer="229" from-port="0" to-layer="230" to-port="4" />
		<edge from-layer="230" from-port="5" to-layer="231" to-port="0" />
		<edge from-layer="231" from-port="2" to-layer="298" to-port="30" />
		<edge from-layer="232" from-port="0" to-layer="236" to-port="1" />
		<edge from-layer="233" from-port="0" to-layer="236" to-port="2" />
		<edge from-layer="234" from-port="0" to-layer="236" to-port="3" />
		<edge from-layer="235" from-port="0" to-layer="236" to-port="4" />
		<edge from-layer="236" from-port="5" to-layer="237" to-port="0" />
		<edge from-layer="237" from-port="2" to-layer="298" to-port="31" />
		<edge from-layer="238" from-port="0" to-layer="242" to-port="1" />
		<edge from-layer="239" from-port="0" to-layer="242" to-port="2" />
		<edge from-layer="240" from-port="0" to-layer="242" to-port="3" />
		<edge from-layer="241" from-port="0" to-layer="242" to-port="4" />
		<edge from-layer="242" from-port="5" to-layer="243" to-port="0" />
		<edge from-layer="243" from-port="2" to-layer="298" to-port="32" />
		<edge from-layer="244" from-port="0" to-layer="248" to-port="1" />
		<edge from-layer="245" from-port="0" to-layer="248" to-port="2" />
		<edge from-layer="246" from-port="0" to-layer="248" to-port="3" />
		<edge from-layer="247" from-port="0" to-layer="248" to-port="4" />
		<edge from-layer="248" from-port="5" to-layer="249" to-port="0" />
		<edge from-layer="249" from-port="2" to-layer="298" to-port="33" />
		<edge from-layer="250" from-port="0" to-layer="254" to-port="1" />
		<edge from-layer="251" from-port="0" to-layer="254" to-port="2" />
		<edge from-layer="252" from-port="0" to-layer="254" to-port="3" />
		<edge from-layer="253" from-port="0" to-layer="254" to-port="4" />
		<edge from-layer="254" from-port="5" to-layer="255" to-port="0" />
		<edge from-layer="255" from-port="2" to-layer="298" to-port="34" />
		<edge from-layer="256" from-port="0" to-layer="260" to-port="1" />
		<edge from-layer="257" from-port="0" to-layer="260" to-port="2" />
		<edge from-layer="258" from-port="0" to-layer="260" to-port="3" />
		<edge from-layer="259" from-port="0" to-layer="260" to-port="4" />
		<edge from-layer="260" from-port="5" to-layer="261" to-port="0" />
		<edge from-layer="261" from-port="2" to-layer="298" to-port="35" />
		<edge from-layer="262" from-port="0" to-layer="266" to-port="1" />
		<edge from-layer="263" from-port="0" to-layer="266" to-port="2" />
		<edge from-layer="264" from-port="0" to-layer="266" to-port="3" />
		<edge from-layer="265" from-port="0" to-layer="266" to-port="4" />
		<edge from-layer="266" from-port="5" to-layer="267" to-port="0" />
		<edge from-layer="267" from-port="2" to-layer="298" to-port="36" />
		<edge from-layer="268" from-port="0" to-layer="272" to-port="1" />
		<edge from-layer="269" from-port="0" to-layer="272" to-port="2" />
		<edge from-layer="270" from-port="0" to-layer="272" to-port="3" />
		<edge from-layer="271" from-port="0" to-layer="272" to-port="4" />
		<edge from-layer="272" from-port="5" to-layer="273" to-port="0" />
		<edge from-layer="273" from-port="2" to-layer="298" to-port="37" />
		<edge from-layer="274" from-port="0" to-layer="278" to-port="1" />
		<edge from-layer="275" from-port="0" to-layer="278" to-port="2" />
		<edge from-layer="276" from-port="0" to-layer="278" to-port="3" />
		<edge from-layer="277" from-port="0" to-layer="278" to-port="4" />
		<edge from-layer="278" from-port="5" to-layer="279" to-port="0" />
		<edge from-layer="279" from-port="2" to-layer="298" to-port="38" />
		<edge from-layer="280" from-port="0" to-layer="284" to-port="1" />
		<edge from-layer="281" from-port="0" to-layer="284" to-port="2" />
		<edge from-layer="282" from-port="0" to-layer="284" to-port="3" />
		<edge from-layer="283" from-port="0" to-layer="284" to-port="4" />
		<edge from-layer="284" from-port="5" to-layer="285" to-port="0" />
		<edge from-layer="285" from-port="2" to-layer="298" to-port="39" />
		<edge from-layer="286" from-port="0" to-layer="290" to-port="1" />
		<edge from-layer="287" from-port="0" to-layer="290" to-port="2" />
		<edge from-layer="288" from-port="0" to-layer="290" to-port="3" />
		<edge from-layer="289" from-port="0" to-layer="290" to-port="4" />
		<edge from-layer="290" from-port="5" to-layer="291" to-port="0" />
		<edge from-layer="291" from-port="2" to-layer="298" to-port="40" />
		<edge from-layer="292" from-port="0" to-layer="296" to-port="1" />
		<edge from-layer="293" from-port="0" to-layer="296" to-port="2" />
		<edge from-layer="294" from-port="0" to-layer="296" to-port="3" />
		<edge from-layer="295" from-port="0" to-layer="296" to-port="4" />
		<edge from-layer="296" from-port="5" to-layer="297" to-port="0" />
		<edge from-layer="297" from-port="2" to-layer="298" to-port="41" />
		<edge from-layer="298" from-port="42" to-layer="301" to-port="0" />
		<edge from-layer="299" from-port="0" to-layer="300" to-port="0" />
		<edge from-layer="300" from-port="1" to-layer="301" to-port="1" />
		<edge from-layer="301" from-port="2" to-layer="304" to-port="0" />
		<edge from-layer="302" from-port="0" to-layer="303" to-port="0" />
		<edge from-layer="303" from-port="1" to-layer="304" to-port="1" />
		<edge from-layer="304" from-port="2" to-layer="305" to-port="1" />
		<edge from-layer="305" from-port="2" to-layer="307" to-port="0" />
		<edge from-layer="306" from-port="0" to-layer="307" to-port="1" />
		<edge from-layer="307" from-port="2" to-layer="309" to-port="0" />
		<edge from-layer="307" from-port="2" to-layer="361" to-port="0" />
		<edge from-layer="308" from-port="0" to-layer="309" to-port="1" />
		<edge from-layer="309" from-port="2" to-layer="312" to-port="0" />
		<edge from-layer="310" from-port="0" to-layer="311" to-port="0" />
		<edge from-layer="311" from-port="1" to-layer="312" to-port="1" />
		<edge from-layer="312" from-port="2" to-layer="315" to-port="0" />
		<edge from-layer="313" from-port="0" to-layer="314" to-port="0" />
		<edge from-layer="314" from-port="1" to-layer="315" to-port="1" />
		<edge from-layer="315" from-port="2" to-layer="318" to-port="0" />
		<edge from-layer="315" from-port="2" to-layer="338" to-port="0" />
		<edge from-layer="315" from-port="2" to-layer="328" to-port="0" />
		<edge from-layer="316" from-port="0" to-layer="317" to-port="0" />
		<edge from-layer="317" from-port="1" to-layer="318" to-port="1" />
		<edge from-layer="318" from-port="2" to-layer="321" to-port="0" />
		<edge from-layer="319" from-port="0" to-layer="320" to-port="0" />
		<edge from-layer="320" from-port="1" to-layer="321" to-port="1" />
		<edge from-layer="321" from-port="2" to-layer="323" to-port="0" />
		<edge from-layer="322" from-port="0" to-layer="323" to-port="1" />
		<edge from-layer="323" from-port="2" to-layer="325" to-port="0" />
		<edge from-layer="324" from-port="0" to-layer="325" to-port="1" />
		<edge from-layer="325" from-port="2" to-layer="350" to-port="0" />
		<edge from-layer="326" from-port="0" to-layer="327" to-port="0" />
		<edge from-layer="327" from-port="1" to-layer="328" to-port="1" />
		<edge from-layer="328" from-port="2" to-layer="331" to-port="0" />
		<edge from-layer="329" from-port="0" to-layer="330" to-port="0" />
		<edge from-layer="330" from-port="1" to-layer="331" to-port="1" />
		<edge from-layer="331" from-port="2" to-layer="333" to-port="0" />
		<edge from-layer="332" from-port="0" to-layer="333" to-port="1" />
		<edge from-layer="333" from-port="2" to-layer="335" to-port="0" />
		<edge from-layer="334" from-port="0" to-layer="335" to-port="1" />
		<edge from-layer="335" from-port="2" to-layer="350" to-port="1" />
		<edge from-layer="336" from-port="0" to-layer="337" to-port="0" />
		<edge from-layer="337" from-port="1" to-layer="338" to-port="1" />
		<edge from-layer="338" from-port="2" to-layer="341" to-port="0" />
		<edge from-layer="339" from-port="0" to-layer="340" to-port="0" />
		<edge from-layer="340" from-port="1" to-layer="341" to-port="1" />
		<edge from-layer="341" from-port="2" to-layer="343" to-port="0" />
		<edge from-layer="342" from-port="0" to-layer="343" to-port="1" />
		<edge from-layer="343" from-port="2" to-layer="345" to-port="0" />
		<edge from-layer="344" from-port="0" to-layer="345" to-port="1" />
		<edge from-layer="345" from-port="2" to-layer="350" to-port="2" />
		<edge from-layer="346" from-port="0" to-layer="347" to-port="0" />
		<edge from-layer="347" from-port="1" to-layer="350" to-port="3" />
		<edge from-layer="348" from-port="0" to-layer="349" to-port="0" />
		<edge from-layer="349" from-port="1" to-layer="350" to-port="4" />
		<edge from-layer="349" from-port="1" to-layer="426" to-port="4" />
		<edge from-layer="349" from-port="1" to-layer="502" to-port="4" />
		<edge from-layer="350" from-port="5" to-layer="352" to-port="0" />
		<edge from-layer="351" from-port="0" to-layer="352" to-port="1" />
		<edge from-layer="352" from-port="2" to-layer="354" to-port="0" />
		<edge from-layer="353" from-port="0" to-layer="354" to-port="1" />
		<edge from-layer="354" from-port="2" to-layer="357" to-port="0" />
		<edge from-layer="355" from-port="0" to-layer="356" to-port="0" />
		<edge from-layer="356" from-port="1" to-layer="357" to-port="1" />
		<edge from-layer="357" from-port="2" to-layer="360" to-port="0" />
		<edge from-layer="358" from-port="0" to-layer="359" to-port="0" />
		<edge from-layer="359" from-port="1" to-layer="360" to-port="1" />
		<edge from-layer="360" from-port="2" to-layer="361" to-port="1" />
		<edge from-layer="361" from-port="2" to-layer="363" to-port="0" />
		<edge from-layer="361" from-port="2" to-layer="383" to-port="0" />
		<edge from-layer="362" from-port="0" to-layer="363" to-port="1" />
		<edge from-layer="363" from-port="2" to-layer="366" to-port="0" />
		<edge from-layer="364" from-port="0" to-layer="365" to-port="0" />
		<edge from-layer="365" from-port="1" to-layer="366" to-port="1" />
		<edge from-layer="366" from-port="2" to-layer="369" to-port="0" />
		<edge from-layer="367" from-port="0" to-layer="368" to-port="0" />
		<edge from-layer="368" from-port="1" to-layer="369" to-port="1" />
		<edge from-layer="369" from-port="2" to-layer="372" to-port="0" />
		<edge from-layer="370" from-port="0" to-layer="371" to-port="0" />
		<edge from-layer="371" from-port="1" to-layer="372" to-port="1" />
		<edge from-layer="372" from-port="2" to-layer="375" to-port="0" />
		<edge from-layer="373" from-port="0" to-layer="374" to-port="0" />
		<edge from-layer="374" from-port="1" to-layer="375" to-port="1" />
		<edge from-layer="375" from-port="2" to-layer="376" to-port="0" />
		<edge from-layer="376" from-port="1" to-layer="379" to-port="0" />
		<edge from-layer="377" from-port="0" to-layer="378" to-port="0" />
		<edge from-layer="378" from-port="1" to-layer="379" to-port="1" />
		<edge from-layer="379" from-port="2" to-layer="382" to-port="0" />
		<edge from-layer="380" from-port="0" to-layer="381" to-port="0" />
		<edge from-layer="381" from-port="1" to-layer="382" to-port="1" />
		<edge from-layer="382" from-port="2" to-layer="383" to-port="1" />
		<edge from-layer="383" from-port="2" to-layer="385" to-port="0" />
		<edge from-layer="384" from-port="0" to-layer="385" to-port="1" />
		<edge from-layer="385" from-port="2" to-layer="437" to-port="0" />
		<edge from-layer="385" from-port="2" to-layer="387" to-port="0" />
		<edge from-layer="386" from-port="0" to-layer="387" to-port="1" />
		<edge from-layer="387" from-port="2" to-layer="390" to-port="0" />
		<edge from-layer="388" from-port="0" to-layer="389" to-port="0" />
		<edge from-layer="389" from-port="1" to-layer="390" to-port="1" />
		<edge from-layer="390" from-port="2" to-layer="393" to-port="0" />
		<edge from-layer="391" from-port="0" to-layer="392" to-port="0" />
		<edge from-layer="392" from-port="1" to-layer="393" to-port="1" />
		<edge from-layer="393" from-port="2" to-layer="416" to-port="0" />
		<edge from-layer="393" from-port="2" to-layer="396" to-port="0" />
		<edge from-layer="393" from-port="2" to-layer="406" to-port="0" />
		<edge from-layer="394" from-port="0" to-layer="395" to-port="0" />
		<edge from-layer="395" from-port="1" to-layer="396" to-port="1" />
		<edge from-layer="396" from-port="2" to-layer="399" to-port="0" />
		<edge from-layer="397" from-port="0" to-layer="398" to-port="0" />
		<edge from-layer="398" from-port="1" to-layer="399" to-port="1" />
		<edge from-layer="399" from-port="2" to-layer="401" to-port="0" />
		<edge from-layer="400" from-port="0" to-layer="401" to-port="1" />
		<edge from-layer="401" from-port="2" to-layer="403" to-port="0" />
		<edge from-layer="402" from-port="0" to-layer="403" to-port="1" />
		<edge from-layer="403" from-port="2" to-layer="426" to-port="0" />
		<edge from-layer="404" from-port="0" to-layer="405" to-port="0" />
		<edge from-layer="405" from-port="1" to-layer="406" to-port="1" />
		<edge from-layer="406" from-port="2" to-layer="409" to-port="0" />
		<edge from-layer="407" from-port="0" to-layer="408" to-port="0" />
		<edge from-layer="408" from-port="1" to-layer="409" to-port="1" />
		<edge from-layer="409" from-port="2" to-layer="411" to-port="0" />
		<edge from-layer="410" from-port="0" to-layer="411" to-port="1" />
		<edge from-layer="411" from-port="2" to-layer="413" to-port="0" />
		<edge from-layer="412" from-port="0" to-layer="413" to-port="1" />
		<edge from-layer="413" from-port="2" to-layer="426" to-port="1" />
		<edge from-layer="414" from-port="0" to-layer="415" to-port="0" />
		<edge from-layer="415" from-port="1" to-layer="416" to-port="1" />
		<edge from-layer="416" from-port="2" to-layer="419" to-port="0" />
		<edge from-layer="417" from-port="0" to-layer="418" to-port="0" />
		<edge from-layer="418" from-port="1" to-layer="419" to-port="1" />
		<edge from-layer="419" from-port="2" to-layer="421" to-port="0" />
		<edge from-layer="420" from-port="0" to-layer="421" to-port="1" />
		<edge from-layer="421" from-port="2" to-layer="423" to-port="0" />
		<edge from-layer="422" from-port="0" to-layer="423" to-port="1" />
		<edge from-layer="423" from-port="2" to-layer="426" to-port="2" />
		<edge from-layer="424" from-port="0" to-layer="425" to-port="0" />
		<edge from-layer="425" from-port="1" to-layer="426" to-port="3" />
		<edge from-layer="426" from-port="5" to-layer="428" to-port="0" />
		<edge from-layer="427" from-port="0" to-layer="428" to-port="1" />
		<edge from-layer="428" from-port="2" to-layer="430" to-port="0" />
		<edge from-layer="429" from-port="0" to-layer="430" to-port="1" />
		<edge from-layer="430" from-port="2" to-layer="433" to-port="0" />
		<edge from-layer="431" from-port="0" to-layer="432" to-port="0" />
		<edge from-layer="432" from-port="1" to-layer="433" to-port="1" />
		<edge from-layer="433" from-port="2" to-layer="436" to-port="0" />
		<edge from-layer="434" from-port="0" to-layer="435" to-port="0" />
		<edge from-layer="435" from-port="1" to-layer="436" to-port="1" />
		<edge from-layer="436" from-port="2" to-layer="437" to-port="1" />
		<edge from-layer="437" from-port="2" to-layer="459" to-port="0" />
		<edge from-layer="437" from-port="2" to-layer="439" to-port="0" />
		<edge from-layer="438" from-port="0" to-layer="439" to-port="1" />
		<edge from-layer="439" from-port="2" to-layer="442" to-port="0" />
		<edge from-layer="440" from-port="0" to-layer="441" to-port="0" />
		<edge from-layer="441" from-port="1" to-layer="442" to-port="1" />
		<edge from-layer="442" from-port="2" to-layer="445" to-port="0" />
		<edge from-layer="443" from-port="0" to-layer="444" to-port="0" />
		<edge from-layer="444" from-port="1" to-layer="445" to-port="1" />
		<edge from-layer="445" from-port="2" to-layer="448" to-port="0" />
		<edge from-layer="446" from-port="0" to-layer="447" to-port="0" />
		<edge from-layer="447" from-port="1" to-layer="448" to-port="1" />
		<edge from-layer="448" from-port="2" to-layer="451" to-port="0" />
		<edge from-layer="449" from-port="0" to-layer="450" to-port="0" />
		<edge from-layer="450" from-port="1" to-layer="451" to-port="1" />
		<edge from-layer="451" from-port="2" to-layer="452" to-port="0" />
		<edge from-layer="452" from-port="1" to-layer="455" to-port="0" />
		<edge from-layer="453" from-port="0" to-layer="454" to-port="0" />
		<edge from-layer="454" from-port="1" to-layer="455" to-port="1" />
		<edge from-layer="455" from-port="2" to-layer="458" to-port="0" />
		<edge from-layer="456" from-port="0" to-layer="457" to-port="0" />
		<edge from-layer="457" from-port="1" to-layer="458" to-port="1" />
		<edge from-layer="458" from-port="2" to-layer="459" to-port="1" />
		<edge from-layer="459" from-port="2" to-layer="461" to-port="0" />
		<edge from-layer="460" from-port="0" to-layer="461" to-port="1" />
		<edge from-layer="461" from-port="2" to-layer="463" to-port="0" />
		<edge from-layer="461" from-port="2" to-layer="513" to-port="0" />
		<edge from-layer="462" from-port="0" to-layer="463" to-port="1" />
		<edge from-layer="463" from-port="2" to-layer="466" to-port="0" />
		<edge from-layer="464" from-port="0" to-layer="465" to-port="0" />
		<edge from-layer="465" from-port="1" to-layer="466" to-port="1" />
		<edge from-layer="466" from-port="2" to-layer="469" to-port="0" />
		<edge from-layer="467" from-port="0" to-layer="468" to-port="0" />
		<edge from-layer="468" from-port="1" to-layer="469" to-port="1" />
		<edge from-layer="469" from-port="2" to-layer="472" to-port="0" />
		<edge from-layer="469" from-port="2" to-layer="492" to-port="0" />
		<edge from-layer="469" from-port="2" to-layer="482" to-port="0" />
		<edge from-layer="470" from-port="0" to-layer="471" to-port="0" />
		<edge from-layer="471" from-port="1" to-layer="472" to-port="1" />
		<edge from-layer="472" from-port="2" to-layer="475" to-port="0" />
		<edge from-layer="473" from-port="0" to-layer="474" to-port="0" />
		<edge from-layer="474" from-port="1" to-layer="475" to-port="1" />
		<edge from-layer="475" from-port="2" to-layer="477" to-port="0" />
		<edge from-layer="476" from-port="0" to-layer="477" to-port="1" />
		<edge from-layer="477" from-port="2" to-layer="479" to-port="0" />
		<edge from-layer="478" from-port="0" to-layer="479" to-port="1" />
		<edge from-layer="479" from-port="2" to-layer="502" to-port="0" />
		<edge from-layer="480" from-port="0" to-layer="481" to-port="0" />
		<edge from-layer="481" from-port="1" to-layer="482" to-port="1" />
		<edge from-layer="482" from-port="2" to-layer="485" to-port="0" />
		<edge from-layer="483" from-port="0" to-layer="484" to-port="0" />
		<edge from-layer="484" from-port="1" to-layer="485" to-port="1" />
		<edge from-layer="485" from-port="2" to-layer="487" to-port="0" />
		<edge from-layer="486" from-port="0" to-layer="487" to-port="1" />
		<edge from-layer="487" from-port="2" to-layer="489" to-port="0" />
		<edge from-layer="488" from-port="0" to-layer="489" to-port="1" />
		<edge from-layer="489" from-port="2" to-layer="502" to-port="1" />
		<edge from-layer="490" from-port="0" to-layer="491" to-port="0" />
		<edge from-layer="491" from-port="1" to-layer="492" to-port="1" />
		<edge from-layer="492" from-port="2" to-layer="495" to-port="0" />
		<edge from-layer="493" from-port="0" to-layer="494" to-port="0" />
		<edge from-layer="494" from-port="1" to-layer="495" to-port="1" />
		<edge from-layer="495" from-port="2" to-layer="497" to-port="0" />
		<edge from-layer="496" from-port="0" to-layer="497" to-port="1" />
		<edge from-layer="497" from-port="2" to-layer="499" to-port="0" />
		<edge from-layer="498" from-port="0" to-layer="499" to-port="1" />
		<edge from-layer="499" from-port="2" to-layer="502" to-port="2" />
		<edge from-layer="500" from-port="0" to-layer="501" to-port="0" />
		<edge from-layer="501" from-port="1" to-layer="502" to-port="3" />
		<edge from-layer="502" from-port="5" to-layer="504" to-port="0" />
		<edge from-layer="503" from-port="0" to-layer="504" to-port="1" />
		<edge from-layer="504" from-port="2" to-layer="506" to-port="0" />
		<edge from-layer="505" from-port="0" to-layer="506" to-port="1" />
		<edge from-layer="506" from-port="2" to-layer="509" to-port="0" />
		<edge from-layer="507" from-port="0" to-layer="508" to-port="0" />
		<edge from-layer="508" from-port="1" to-layer="509" to-port="1" />
		<edge from-layer="509" from-port="2" to-layer="512" to-port="0" />
		<edge from-layer="510" from-port="0" to-layer="511" to-port="0" />
		<edge from-layer="511" from-port="1" to-layer="512" to-port="1" />
		<edge from-layer="512" from-port="2" to-layer="513" to-port="1" />
		<edge from-layer="513" from-port="2" to-layer="515" to-port="0" />
		<edge from-layer="513" from-port="2" to-layer="535" to-port="0" />
		<edge from-layer="514" from-port="0" to-layer="515" to-port="1" />
		<edge from-layer="515" from-port="2" to-layer="518" to-port="0" />
		<edge from-layer="516" from-port="0" to-layer="517" to-port="0" />
		<edge from-layer="517" from-port="1" to-layer="518" to-port="1" />
		<edge from-layer="518" from-port="2" to-layer="521" to-port="0" />
		<edge from-layer="519" from-port="0" to-layer="520" to-port="0" />
		<edge from-layer="520" from-port="1" to-layer="521" to-port="1" />
		<edge from-layer="521" from-port="2" to-layer="524" to-port="0" />
		<edge from-layer="522" from-port="0" to-layer="523" to-port="0" />
		<edge from-layer="523" from-port="1" to-layer="524" to-port="1" />
		<edge from-layer="524" from-port="2" to-layer="527" to-port="0" />
		<edge from-layer="525" from-port="0" to-layer="526" to-port="0" />
		<edge from-layer="526" from-port="1" to-layer="527" to-port="1" />
		<edge from-layer="527" from-port="2" to-layer="528" to-port="0" />
		<edge from-layer="528" from-port="1" to-layer="531" to-port="0" />
		<edge from-layer="529" from-port="0" to-layer="530" to-port="0" />
		<edge from-layer="530" from-port="1" to-layer="531" to-port="1" />
		<edge from-layer="531" from-port="2" to-layer="534" to-port="0" />
		<edge from-layer="532" from-port="0" to-layer="533" to-port="0" />
		<edge from-layer="533" from-port="1" to-layer="534" to-port="1" />
		<edge from-layer="534" from-port="2" to-layer="535" to-port="1" />
		<edge from-layer="535" from-port="2" to-layer="537" to-port="0" />
		<edge from-layer="536" from-port="0" to-layer="537" to-port="1" />
		<edge from-layer="537" from-port="2" to-layer="540" to-port="0" />
		<edge from-layer="538" from-port="0" to-layer="540" to-port="1" />
		<edge from-layer="539" from-port="0" to-layer="540" to-port="2" />
		<edge from-layer="540" from-port="3" to-layer="543" to-port="0" />
		<edge from-layer="541" from-port="0" to-layer="542" to-port="0" />
		<edge from-layer="542" from-port="1" to-layer="543" to-port="1" />
		<edge from-layer="543" from-port="2" to-layer="546" to-port="0" />
		<edge from-layer="544" from-port="0" to-layer="545" to-port="0" />
		<edge from-layer="545" from-port="1" to-layer="546" to-port="1" />
		<edge from-layer="546" from-port="2" to-layer="548" to-port="0" />
		<edge from-layer="547" from-port="0" to-layer="548" to-port="1" />
		<edge from-layer="548" from-port="2" to-layer="549" to-port="0" />
		<edge from-layer="549" from-port="2" to-layer="550" to-port="0" />
		<edge from-layer="550" from-port="2" to-layer="551" to-port="0" />
	</edges>
	<rt_info>
		<Runtime_version value="2025.4.1-20426-82bbf0292c5-releases/2025/4" />
		<conversion_parameters>
			<framework value="pytorch" />
			<is_python_object value="True" />
		</conversion_parameters>
		<optimum>
			<optimum_intel_version value="1.27.0" />
			<optimum_version value="2.1.0" />
			<pytorch_version value="2.9.0+cpu" />
			<transformers_version value="4.57.6" />
		</optimum>
	</rt_info>
</net>
